{"format": "layers-model", "generatedBy": "keras v2.3.1", "convertedBy": "TensorFlow.js Converter v4.19.0", "modelTopology": {"keras_version": "2.3.1", "backend": "tensorflow", "model_config": {"class_name": "Model", "config": {"name": "model_3", "layers": [{"name": "input_3", "class_name": "InputLayer", "config": {"batch_input_shape": [null, 25, 224, 224, 3], "dtype": "float32", "sparse": false, "name": "input_3"}, "inbound_nodes": []}, {"name": "data_fast", "class_name": "Lambda", "config": {"name": "data_fast", "trainable": true, "dtype": "float32", "function": ["4wIAAAAAAAAAAgAAAAcAAABDAAAAcygAAAB8AGQAZACFAmQAZAB8AYUDZABkAIUCZABkAIUCZABk\nAIUCZgUZAFMAKQFOqQApAtoBeNoGc3RyaWRlcgEAAAByAQAAAPoePGlweXRob24taW5wdXQtOS0z\nMzJjYmJlNzY5ODc+2glkYXRhbGF5ZXIcAAAAcwIAAAAAAQ==\n", null, null], "function_type": "lambda", "output_shape": null, "output_shape_type": "raw", "arguments": {"stride": 2}}, "inbound_nodes": [[["input_3", 0, 0, {}]]]}, {"name": "data_slow", "class_name": "Lambda", "config": {"name": "data_slow", "trainable": true, "dtype": "float32", "function": ["4wIAAAAAAAAAAgAAAAcAAABDAAAAcygAAAB8AGQAZACFAmQAZAB8AYUDZABkAIUCZABkAIUCZABk\nAIUCZgUZAFMAKQFOqQApAtoBeNoGc3RyaWRlcgEAAAByAQAAAPoePGlweXRob24taW5wdXQtOS0z\nMzJjYmJlNzY5ODc+2glkYXRhbGF5ZXIcAAAAcwIAAAAAAQ==\n", null, null], "function_type": "lambda", "output_shape": null, "output_shape_type": "raw", "arguments": {"stride": 16}}, "inbound_nodes": [[["input_3", 0, 0, {}]]]}, {"name": "sequential_149", "class_name": "Sequential", "config": {"name": "sequential_149", "layers": [{"class_name": "Conv3D", "config": {"name": "conv3d_221", "trainable": true, "dtype": "float32", "filters": 8, "kernel_size": [5, 7, 7], "strides": [1, 2, 2], "padding": "same", "data_format": "channels_last", "dilation_rate": [1, 1, 1], "activation": "linear", "use_bias": false, "kernel_initializer": {"class_name": "VarianceScaling", "config": {"scale": 1.0, "mode": "fan_avg", "distribution": "uniform", "seed": null}}, "bias_initializer": {"class_name": "Zeros", "config": {}}, "kernel_regularizer": null, "bias_regularizer": null, "activity_regularizer": null, "kernel_constraint": null, "bias_constraint": null}}, {"class_name": "BatchNormalization", "config": {"name": "batch_normalization_213", "trainable": true, "dtype": "float32", "axis": -1, "momentum": 0.99, "epsilon": 0.001, "center": true, "scale": true, "beta_initializer": {"class_name": "Zeros", "config": {}}, "gamma_initializer": {"class_name": "Ones", "config": {}}, "moving_mean_initializer": {"class_name": "Zeros", "config": {}}, "moving_variance_initializer": {"class_name": "Ones", "config": {}}, "beta_regularizer": null, "gamma_regularizer": null, "beta_constraint": null, "gamma_constraint": null}}, {"class_name": "ReLU", "config": {"name": "re_lu_197", "trainable": true, "dtype": "float32", "max_value": null, "negative_slope": 0.0, "threshold": 0.0}}], "build_input_shape": [null, 13, 224, 224, 3]}, "inbound_nodes": [[["data_fast", 0, 0, {}]]]}, {"name": "sequential_186", "class_name": "Sequential", "config": {"name": "sequential_186", "layers": [{"class_name": "Conv3D", "config": {"name": "conv3d_278", "trainable": true, "dtype": "float32", "filters": 64, "kernel_size": [1, 7, 7], "strides": [1, 2, 2], "padding": "same", "data_format": "channels_last", "dilation_rate": [1, 1, 1], "activation": "linear", "use_bias": false, "kernel_initializer": {"class_name": "VarianceScaling", "config": {"scale": 1.0, "mode": "fan_avg", "distribution": "uniform", "seed": null}}, "bias_initializer": {"class_name": "Zeros", "config": {}}, "kernel_regularizer": null, "bias_regularizer": null, "activity_regularizer": null, "kernel_constraint": null, "bias_constraint": null}}, {"class_name": "BatchNormalization", "config": {"name": "batch_normalization_266", "trainable": true, "dtype": "float32", "axis": -1, "momentum": 0.99, "epsilon": 0.001, "center": true, "scale": true, "beta_initializer": {"class_name": "Zeros", "config": {}}, "gamma_initializer": {"class_name": "Ones", "config": {}}, "moving_mean_initializer": {"class_name": "Zeros", "config": {}}, "moving_variance_initializer": {"class_name": "Ones", "config": {}}, "beta_regularizer": null, "gamma_regularizer": null, "beta_constraint": null, "gamma_constraint": null}}, {"class_name": "ReLU", "config": {"name": "re_lu_246", "trainable": true, "dtype": "float32", "max_value": null, "negative_slope": 0.0, "threshold": 0.0}}], "build_input_shape": [null, 2, 224, 224, 3]}, "inbound_nodes": [[["data_slow", 0, 0, {}]]]}, {"name": "max_pooling3d_5", "class_name": "MaxPooling3D", "config": {"name": "max_pooling3d_5", "trainable": true, "dtype": "float32", "pool_size": [1, 3, 3], "padding": "same", "strides": [1, 2, 2], "data_format": "channels_last"}, "inbound_nodes": [[["sequential_149", 1, 0, {}]]]}, {"name": "max_pooling3d_6", "class_name": "MaxPooling3D", "config": {"name": "max_pooling3d_6", "trainable": true, "dtype": "float32", "pool_size": [1, 3, 3], "padding": "same", "strides": [1, 2, 2], "data_format": "channels_last"}, "inbound_nodes": [[["sequential_186", 1, 0, {}]]]}, {"name": "conv3d_222", "class_name": "Conv3D", "config": {"name": "conv3d_222", "trainable": true, "dtype": "float32", "filters": 16, "kernel_size": [5, 1, 1], "strides": [8, 1, 1], "padding": "same", "data_format": "channels_last", "dilation_rate": [1, 1, 1], "activation": "linear", "use_bias": false, "kernel_initializer": {"class_name": "VarianceScaling", "config": {"scale": 1.0, "mode": "fan_avg", "distribution": "uniform", "seed": null}}, "bias_initializer": {"class_name": "Zeros", "config": {}}, "kernel_regularizer": null, "bias_regularizer": null, "activity_regularizer": null, "kernel_constraint": null, "bias_constraint": null}, "inbound_nodes": [[["max_pooling3d_5", 0, 0, {}]]]}, {"name": "concatenate_11", "class_name": "Concatenate", "config": {"name": "concatenate_11", "trainable": true, "dtype": "float32", "axis": -1}, "inbound_nodes": [[["max_pooling3d_6", 0, 0, {}], ["conv3d_222", 0, 0, {}]]]}, {"name": "sequential_151", "class_name": "Sequential", "config": {"name": "sequential_151", "layers": [{"class_name": "Conv3D", "config": {"name": "conv3d_224", "trainable": true, "dtype": "float32", "filters": 8, "kernel_size": [3, 1, 1], "strides": [1, 1, 1], "padding": "same", "data_format": "channels_last", "dilation_rate": [1, 1, 1], "activation": "linear", "use_bias": false, "kernel_initializer": {"class_name": "VarianceScaling", "config": {"scale": 1.0, "mode": "fan_avg", "distribution": "uniform", "seed": null}}, "bias_initializer": {"class_name": "Zeros", "config": {}}, "kernel_regularizer": null, "bias_regularizer": null, "activity_regularizer": null, "kernel_constraint": null, "bias_constraint": null}}, {"class_name": "BatchNormalization", "config": {"name": "batch_normalization_215", "trainable": true, "dtype": "float32", "axis": -1, "momentum": 0.99, "epsilon": 0.001, "center": true, "scale": true, "beta_initializer": {"class_name": "Zeros", "config": {}}, "gamma_initializer": {"class_name": "Ones", "config": {}}, "moving_mean_initializer": {"class_name": "Zeros", "config": {}}, "moving_variance_initializer": {"class_name": "Ones", "config": {}}, "beta_regularizer": null, "gamma_regularizer": null, "beta_constraint": null, "gamma_constraint": null}}, {"class_name": "ReLU", "config": {"name": "re_lu_198", "trainable": true, "dtype": "float32", "max_value": null, "negative_slope": 0.0, "threshold": 0.0}}], "build_input_shape": [null, 13, 56, 56, 8]}, "inbound_nodes": [[["max_pooling3d_5", 0, 0, {}]]]}, {"name": "sequential_188", "class_name": "Sequential", "config": {"name": "sequential_188", "layers": [{"class_name": "Conv3D", "config": {"name": "conv3d_280", "trainable": true, "dtype": "float32", "filters": 64, "kernel_size": [1, 1, 1], "strides": [1, 1, 1], "padding": "same", "data_format": "channels_last", "dilation_rate": [1, 1, 1], "activation": "linear", "use_bias": false, "kernel_initializer": {"class_name": "VarianceScaling", "config": {"scale": 1.0, "mode": "fan_avg", "distribution": "uniform", "seed": null}}, "bias_initializer": {"class_name": "Zeros", "config": {}}, "kernel_regularizer": null, "bias_regularizer": null, "activity_regularizer": null, "kernel_constraint": null, "bias_constraint": null}}, {"class_name": "BatchNormalization", "config": {"name": "batch_normalization_268", "trainable": true, "dtype": "float32", "axis": -1, "momentum": 0.99, "epsilon": 0.001, "center": true, "scale": true, "beta_initializer": {"class_name": "Zeros", "config": {}}, "gamma_initializer": {"class_name": "Ones", "config": {}}, "moving_mean_initializer": {"class_name": "Zeros", "config": {}}, "moving_variance_initializer": {"class_name": "Ones", "config": {}}, "beta_regularizer": null, "gamma_regularizer": null, "beta_constraint": null, "gamma_constraint": null}}, {"class_name": "ReLU", "config": {"name": "re_lu_247", "trainable": true, "dtype": "float32", "max_value": null, "negative_slope": 0.0, "threshold": 0.0}}], "build_input_shape": [null, 2, 56, 56, 80]}, "inbound_nodes": [[["concatenate_11", 0, 0, {}]]]}, {"name": "sequential_152", "class_name": "Sequential", "config": {"name": "sequential_152", "layers": [{"class_name": "Conv3D", "config": {"name": "conv3d_225", "trainable": true, "dtype": "float32", "filters": 8, "kernel_size": [1, 3, 3], "strides": [1, 1, 1], "padding": "same", "data_format": "channels_last", "dilation_rate": [1, 1, 1], "activation": "linear", "use_bias": false, "kernel_initializer": {"class_name": "VarianceScaling", "config": {"scale": 1.0, "mode": "fan_avg", "distribution": "uniform", "seed": null}}, "bias_initializer": {"class_name": "Zeros", "config": {}}, "kernel_regularizer": null, "bias_regularizer": null, "activity_regularizer": null, "kernel_constraint": null, "bias_constraint": null}}, {"class_name": "BatchNormalization", "config": {"name": "batch_normalization_216", "trainable": true, "dtype": "float32", "axis": -1, "momentum": 0.99, "epsilon": 0.001, "center": true, "scale": true, "beta_initializer": {"class_name": "Zeros", "config": {}}, "gamma_initializer": {"class_name": "Ones", "config": {}}, "moving_mean_initializer": {"class_name": "Zeros", "config": {}}, "moving_variance_initializer": {"class_name": "Ones", "config": {}}, "beta_regularizer": null, "gamma_regularizer": null, "beta_constraint": null, "gamma_constraint": null}}, {"class_name": "ReLU", "config": {"name": "re_lu_199", "trainable": true, "dtype": "float32", "max_value": null, "negative_slope": 0.0, "threshold": 0.0}}], "build_input_shape": [null, 13, 56, 56, 8]}, "inbound_nodes": [[["sequential_151", 1, 0, {}]]]}, {"name": "sequential_189", "class_name": "Sequential", "config": {"name": "sequential_189", "layers": [{"class_name": "Conv3D", "config": {"name": "conv3d_281", "trainable": true, "dtype": "float32", "filters": 64, "kernel_size": [1, 3, 3], "strides": [1, 1, 1], "padding": "same", "data_format": "channels_last", "dilation_rate": [1, 1, 1], "activation": "linear", "use_bias": false, "kernel_initializer": {"class_name": "VarianceScaling", "config": {"scale": 1.0, "mode": "fan_avg", "distribution": "uniform", "seed": null}}, "bias_initializer": {"class_name": "Zeros", "config": {}}, "kernel_regularizer": null, "bias_regularizer": null, "activity_regularizer": null, "kernel_constraint": null, "bias_constraint": null}}, {"class_name": "BatchNormalization", "config": {"name": "batch_normalization_269", "trainable": true, "dtype": "float32", "axis": -1, "momentum": 0.99, "epsilon": 0.001, "center": true, "scale": true, "beta_initializer": {"class_name": "Zeros", "config": {}}, "gamma_initializer": {"class_name": "Ones", "config": {}}, "moving_mean_initializer": {"class_name": "Zeros", "config": {}}, "moving_variance_initializer": {"class_name": "Ones", "config": {}}, "beta_regularizer": null, "gamma_regularizer": null, "beta_constraint": null, "gamma_constraint": null}}, {"class_name": "ReLU", "config": {"name": "re_lu_248", "trainable": true, "dtype": "float32", "max_value": null, "negative_slope": 0.0, "threshold": 0.0}}], "build_input_shape": [null, 2, 56, 56, 64]}, "inbound_nodes": [[["sequential_188", 1, 0, {}]]]}, {"name": "conv3d_226", "class_name": "Conv3D", "config": {"name": "conv3d_226", "trainable": true, "dtype": "float32", "filters": 32, "kernel_size": [1, 1, 1], "strides": [1, 1, 1], "padding": "valid", "data_format": "channels_last", "dilation_rate": [1, 1, 1], "activation": "linear", "use_bias": false, "kernel_initializer": {"class_name": "VarianceScaling", "config": {"scale": 1.0, "mode": "fan_avg", "distribution": "uniform", "seed": null}}, "bias_initializer": {"class_name": "Zeros", "config": {}}, "kernel_regularizer": null, "bias_regularizer": null, "activity_regularizer": null, "kernel_constraint": null, "bias_constraint": null}, "inbound_nodes": [[["sequential_152", 1, 0, {}]]]}, {"name": "conv3d_282", "class_name": "Conv3D", "config": {"name": "conv3d_282", "trainable": true, "dtype": "float32", "filters": 256, "kernel_size": [1, 1, 1], "strides": [1, 1, 1], "padding": "valid", "data_format": "channels_last", "dilation_rate": [1, 1, 1], "activation": "linear", "use_bias": false, "kernel_initializer": {"class_name": "VarianceScaling", "config": {"scale": 1.0, "mode": "fan_avg", "distribution": "uniform", "seed": null}}, "bias_initializer": {"class_name": "Zeros", "config": {}}, "kernel_regularizer": null, "bias_regularizer": null, "activity_regularizer": null, "kernel_constraint": null, "bias_constraint": null}, "inbound_nodes": [[["sequential_189", 1, 0, {}]]]}, {"name": "batch_normalization_217", "class_name": "BatchNormalization", "config": {"name": "batch_normalization_217", "trainable": true, "dtype": "float32", "axis": -1, "momentum": 0.99, "epsilon": 0.001, "center": true, "scale": true, "beta_initializer": {"class_name": "Zeros", "config": {}}, "gamma_initializer": {"class_name": "Ones", "config": {}}, "moving_mean_initializer": {"class_name": "Zeros", "config": {}}, "moving_variance_initializer": {"class_name": "Ones", "config": {}}, "beta_regularizer": null, "gamma_regularizer": null, "beta_constraint": null, "gamma_constraint": null}, "inbound_nodes": [[["conv3d_226", 0, 0, {}]]]}, {"name": "sequential_150", "class_name": "Sequential", "config": {"name": "sequential_150", "layers": [{"class_name": "Conv3D", "config": {"name": "conv3d_223", "trainable": true, "dtype": "float32", "filters": 32, "kernel_size": [1, 1, 1], "strides": [1, 1, 1], "padding": "valid", "data_format": "channels_last", "dilation_rate": [1, 1, 1], "activation": "linear", "use_bias": false, "kernel_initializer": {"class_name": "VarianceScaling", "config": {"scale": 1.0, "mode": "fan_avg", "distribution": "uniform", "seed": null}}, "bias_initializer": {"class_name": "Zeros", "config": {}}, "kernel_regularizer": null, "bias_regularizer": null, "activity_regularizer": null, "kernel_constraint": null, "bias_constraint": null}}, {"class_name": "BatchNormalization", "config": {"name": "batch_normalization_214", "trainable": true, "dtype": "float32", "axis": -1, "momentum": 0.99, "epsilon": 0.001, "center": true, "scale": true, "beta_initializer": {"class_name": "Zeros", "config": {}}, "gamma_initializer": {"class_name": "Ones", "config": {}}, "moving_mean_initializer": {"class_name": "Zeros", "config": {}}, "moving_variance_initializer": {"class_name": "Ones", "config": {}}, "beta_regularizer": null, "gamma_regularizer": null, "beta_constraint": null, "gamma_constraint": null}}], "build_input_shape": [null, 13, 56, 56, 8]}, "inbound_nodes": [[["max_pooling3d_5", 0, 0, {}]]]}, {"name": "batch_normalization_270", "class_name": "BatchNormalization", "config": {"name": "batch_normalization_270", "trainable": true, "dtype": "float32", "axis": -1, "momentum": 0.99, "epsilon": 0.001, "center": true, "scale": true, "beta_initializer": {"class_name": "Zeros", "config": {}}, "gamma_initializer": {"class_name": "Ones", "config": {}}, "moving_mean_initializer": {"class_name": "Zeros", "config": {}}, "moving_variance_initializer": {"class_name": "Ones", "config": {}}, "beta_regularizer": null, "gamma_regularizer": null, "beta_constraint": null, "gamma_constraint": null}, "inbound_nodes": [[["conv3d_282", 0, 0, {}]]]}, {"name": "sequential_187", "class_name": "Sequential", "config": {"name": "sequential_187", "layers": [{"class_name": "Conv3D", "config": {"name": "conv3d_279", "trainable": true, "dtype": "float32", "filters": 256, "kernel_size": [1, 1, 1], "strides": [1, 1, 1], "padding": "valid", "data_format": "channels_last", "dilation_rate": [1, 1, 1], "activation": "linear", "use_bias": false, "kernel_initializer": {"class_name": "VarianceScaling", "config": {"scale": 1.0, "mode": "fan_avg", "distribution": "uniform", "seed": null}}, "bias_initializer": {"class_name": "Zeros", "config": {}}, "kernel_regularizer": null, "bias_regularizer": null, "activity_regularizer": null, "kernel_constraint": null, "bias_constraint": null}}, {"class_name": "BatchNormalization", "config": {"name": "batch_normalization_267", "trainable": true, "dtype": "float32", "axis": -1, "momentum": 0.99, "epsilon": 0.001, "center": true, "scale": true, "beta_initializer": {"class_name": "Zeros", "config": {}}, "gamma_initializer": {"class_name": "Ones", "config": {}}, "moving_mean_initializer": {"class_name": "Zeros", "config": {}}, "moving_variance_initializer": {"class_name": "Ones", "config": {}}, "beta_regularizer": null, "gamma_regularizer": null, "beta_constraint": null, "gamma_constraint": null}}], "build_input_shape": [null, 2, 56, 56, 80]}, "inbound_nodes": [[["concatenate_11", 0, 0, {}]]]}, {"name": "add_65", "class_name": "Add", "config": {"name": "add_65", "trainable": true, "dtype": "float32"}, "inbound_nodes": [[["batch_normalization_217", 0, 0, {}], ["sequential_150", 1, 0, {}]]]}, {"name": "add_81", "class_name": "Add", "config": {"name": "add_81", "trainable": true, "dtype": "float32"}, "inbound_nodes": [[["batch_normalization_270", 0, 0, {}], ["sequential_187", 1, 0, {}]]]}, {"name": "re_lu_200", "class_name": "ReLU", "config": {"name": "re_lu_200", "trainable": true, "dtype": "float32", "max_value": null, "negative_slope": 0.0, "threshold": 0.0}, "inbound_nodes": [[["add_65", 0, 0, {}]]]}, {"name": "re_lu_249", "class_name": "ReLU", "config": {"name": "re_lu_249", "trainable": true, "dtype": "float32", "max_value": null, "negative_slope": 0.0, "threshold": 0.0}, "inbound_nodes": [[["add_81", 0, 0, {}]]]}, {"name": "sequential_153", "class_name": "Sequential", "config": {"name": "sequential_153", "layers": [{"class_name": "Conv3D", "config": {"name": "conv3d_227", "trainable": true, "dtype": "float32", "filters": 8, "kernel_size": [3, 1, 1], "strides": [1, 1, 1], "padding": "same", "data_format": "channels_last", "dilation_rate": [1, 1, 1], "activation": "linear", "use_bias": false, "kernel_initializer": {"class_name": "VarianceScaling", "config": {"scale": 1.0, "mode": "fan_avg", "distribution": "uniform", "seed": null}}, "bias_initializer": {"class_name": "Zeros", "config": {}}, "kernel_regularizer": null, "bias_regularizer": null, "activity_regularizer": null, "kernel_constraint": null, "bias_constraint": null}}, {"class_name": "BatchNormalization", "config": {"name": "batch_normalization_218", "trainable": true, "dtype": "float32", "axis": -1, "momentum": 0.99, "epsilon": 0.001, "center": true, "scale": true, "beta_initializer": {"class_name": "Zeros", "config": {}}, "gamma_initializer": {"class_name": "Ones", "config": {}}, "moving_mean_initializer": {"class_name": "Zeros", "config": {}}, "moving_variance_initializer": {"class_name": "Ones", "config": {}}, "beta_regularizer": null, "gamma_regularizer": null, "beta_constraint": null, "gamma_constraint": null}}, {"class_name": "ReLU", "config": {"name": "re_lu_201", "trainable": true, "dtype": "float32", "max_value": null, "negative_slope": 0.0, "threshold": 0.0}}], "build_input_shape": [null, 13, 56, 56, 32]}, "inbound_nodes": [[["re_lu_200", 0, 0, {}]]]}, {"name": "sequential_190", "class_name": "Sequential", "config": {"name": "sequential_190", "layers": [{"class_name": "Conv3D", "config": {"name": "conv3d_283", "trainable": true, "dtype": "float32", "filters": 64, "kernel_size": [1, 1, 1], "strides": [1, 1, 1], "padding": "same", "data_format": "channels_last", "dilation_rate": [1, 1, 1], "activation": "linear", "use_bias": false, "kernel_initializer": {"class_name": "VarianceScaling", "config": {"scale": 1.0, "mode": "fan_avg", "distribution": "uniform", "seed": null}}, "bias_initializer": {"class_name": "Zeros", "config": {}}, "kernel_regularizer": null, "bias_regularizer": null, "activity_regularizer": null, "kernel_constraint": null, "bias_constraint": null}}, {"class_name": "BatchNormalization", "config": {"name": "batch_normalization_271", "trainable": true, "dtype": "float32", "axis": -1, "momentum": 0.99, "epsilon": 0.001, "center": true, "scale": true, "beta_initializer": {"class_name": "Zeros", "config": {}}, "gamma_initializer": {"class_name": "Ones", "config": {}}, "moving_mean_initializer": {"class_name": "Zeros", "config": {}}, "moving_variance_initializer": {"class_name": "Ones", "config": {}}, "beta_regularizer": null, "gamma_regularizer": null, "beta_constraint": null, "gamma_constraint": null}}, {"class_name": "ReLU", "config": {"name": "re_lu_250", "trainable": true, "dtype": "float32", "max_value": null, "negative_slope": 0.0, "threshold": 0.0}}], "build_input_shape": [null, 2, 56, 56, 256]}, "inbound_nodes": [[["re_lu_249", 0, 0, {}]]]}, {"name": "sequential_154", "class_name": "Sequential", "config": {"name": "sequential_154", "layers": [{"class_name": "Conv3D", "config": {"name": "conv3d_228", "trainable": true, "dtype": "float32", "filters": 8, "kernel_size": [1, 3, 3], "strides": [1, 1, 1], "padding": "same", "data_format": "channels_last", "dilation_rate": [1, 1, 1], "activation": "linear", "use_bias": false, "kernel_initializer": {"class_name": "VarianceScaling", "config": {"scale": 1.0, "mode": "fan_avg", "distribution": "uniform", "seed": null}}, "bias_initializer": {"class_name": "Zeros", "config": {}}, "kernel_regularizer": null, "bias_regularizer": null, "activity_regularizer": null, "kernel_constraint": null, "bias_constraint": null}}, {"class_name": "BatchNormalization", "config": {"name": "batch_normalization_219", "trainable": true, "dtype": "float32", "axis": -1, "momentum": 0.99, "epsilon": 0.001, "center": true, "scale": true, "beta_initializer": {"class_name": "Zeros", "config": {}}, "gamma_initializer": {"class_name": "Ones", "config": {}}, "moving_mean_initializer": {"class_name": "Zeros", "config": {}}, "moving_variance_initializer": {"class_name": "Ones", "config": {}}, "beta_regularizer": null, "gamma_regularizer": null, "beta_constraint": null, "gamma_constraint": null}}, {"class_name": "ReLU", "config": {"name": "re_lu_202", "trainable": true, "dtype": "float32", "max_value": null, "negative_slope": 0.0, "threshold": 0.0}}], "build_input_shape": [null, 13, 56, 56, 8]}, "inbound_nodes": [[["sequential_153", 1, 0, {}]]]}, {"name": "sequential_191", "class_name": "Sequential", "config": {"name": "sequential_191", "layers": [{"class_name": "Conv3D", "config": {"name": "conv3d_284", "trainable": true, "dtype": "float32", "filters": 64, "kernel_size": [1, 3, 3], "strides": [1, 1, 1], "padding": "same", "data_format": "channels_last", "dilation_rate": [1, 1, 1], "activation": "linear", "use_bias": false, "kernel_initializer": {"class_name": "VarianceScaling", "config": {"scale": 1.0, "mode": "fan_avg", "distribution": "uniform", "seed": null}}, "bias_initializer": {"class_name": "Zeros", "config": {}}, "kernel_regularizer": null, "bias_regularizer": null, "activity_regularizer": null, "kernel_constraint": null, "bias_constraint": null}}, {"class_name": "BatchNormalization", "config": {"name": "batch_normalization_272", "trainable": true, "dtype": "float32", "axis": -1, "momentum": 0.99, "epsilon": 0.001, "center": true, "scale": true, "beta_initializer": {"class_name": "Zeros", "config": {}}, "gamma_initializer": {"class_name": "Ones", "config": {}}, "moving_mean_initializer": {"class_name": "Zeros", "config": {}}, "moving_variance_initializer": {"class_name": "Ones", "config": {}}, "beta_regularizer": null, "gamma_regularizer": null, "beta_constraint": null, "gamma_constraint": null}}, {"class_name": "ReLU", "config": {"name": "re_lu_251", "trainable": true, "dtype": "float32", "max_value": null, "negative_slope": 0.0, "threshold": 0.0}}], "build_input_shape": [null, 2, 56, 56, 64]}, "inbound_nodes": [[["sequential_190", 1, 0, {}]]]}, {"name": "conv3d_229", "class_name": "Conv3D", "config": {"name": "conv3d_229", "trainable": true, "dtype": "float32", "filters": 32, "kernel_size": [1, 1, 1], "strides": [1, 1, 1], "padding": "valid", "data_format": "channels_last", "dilation_rate": [1, 1, 1], "activation": "linear", "use_bias": false, "kernel_initializer": {"class_name": "VarianceScaling", "config": {"scale": 1.0, "mode": "fan_avg", "distribution": "uniform", "seed": null}}, "bias_initializer": {"class_name": "Zeros", "config": {}}, "kernel_regularizer": null, "bias_regularizer": null, "activity_regularizer": null, "kernel_constraint": null, "bias_constraint": null}, "inbound_nodes": [[["sequential_154", 1, 0, {}]]]}, {"name": "conv3d_285", "class_name": "Conv3D", "config": {"name": "conv3d_285", "trainable": true, "dtype": "float32", "filters": 256, "kernel_size": [1, 1, 1], "strides": [1, 1, 1], "padding": "valid", "data_format": "channels_last", "dilation_rate": [1, 1, 1], "activation": "linear", "use_bias": false, "kernel_initializer": {"class_name": "VarianceScaling", "config": {"scale": 1.0, "mode": "fan_avg", "distribution": "uniform", "seed": null}}, "bias_initializer": {"class_name": "Zeros", "config": {}}, "kernel_regularizer": null, "bias_regularizer": null, "activity_regularizer": null, "kernel_constraint": null, "bias_constraint": null}, "inbound_nodes": [[["sequential_191", 1, 0, {}]]]}, {"name": "batch_normalization_220", "class_name": "BatchNormalization", "config": {"name": "batch_normalization_220", "trainable": true, "dtype": "float32", "axis": -1, "momentum": 0.99, "epsilon": 0.001, "center": true, "scale": true, "beta_initializer": {"class_name": "Zeros", "config": {}}, "gamma_initializer": {"class_name": "Ones", "config": {}}, "moving_mean_initializer": {"class_name": "Zeros", "config": {}}, "moving_variance_initializer": {"class_name": "Ones", "config": {}}, "beta_regularizer": null, "gamma_regularizer": null, "beta_constraint": null, "gamma_constraint": null}, "inbound_nodes": [[["conv3d_229", 0, 0, {}]]]}, {"name": "batch_normalization_273", "class_name": "BatchNormalization", "config": {"name": "batch_normalization_273", "trainable": true, "dtype": "float32", "axis": -1, "momentum": 0.99, "epsilon": 0.001, "center": true, "scale": true, "beta_initializer": {"class_name": "Zeros", "config": {}}, "gamma_initializer": {"class_name": "Ones", "config": {}}, "moving_mean_initializer": {"class_name": "Zeros", "config": {}}, "moving_variance_initializer": {"class_name": "Ones", "config": {}}, "beta_regularizer": null, "gamma_regularizer": null, "beta_constraint": null, "gamma_constraint": null}, "inbound_nodes": [[["conv3d_285", 0, 0, {}]]]}, {"name": "add_66", "class_name": "Add", "config": {"name": "add_66", "trainable": true, "dtype": "float32"}, "inbound_nodes": [[["batch_normalization_220", 0, 0, {}], ["re_lu_200", 0, 0, {}]]]}, {"name": "add_82", "class_name": "Add", "config": {"name": "add_82", "trainable": true, "dtype": "float32"}, "inbound_nodes": [[["batch_normalization_273", 0, 0, {}], ["re_lu_249", 0, 0, {}]]]}, {"name": "re_lu_203", "class_name": "ReLU", "config": {"name": "re_lu_203", "trainable": true, "dtype": "float32", "max_value": null, "negative_slope": 0.0, "threshold": 0.0}, "inbound_nodes": [[["add_66", 0, 0, {}]]]}, {"name": "re_lu_252", "class_name": "ReLU", "config": {"name": "re_lu_252", "trainable": true, "dtype": "float32", "max_value": null, "negative_slope": 0.0, "threshold": 0.0}, "inbound_nodes": [[["add_82", 0, 0, {}]]]}, {"name": "sequential_155", "class_name": "Sequential", "config": {"name": "sequential_155", "layers": [{"class_name": "Conv3D", "config": {"name": "conv3d_230", "trainable": true, "dtype": "float32", "filters": 8, "kernel_size": [3, 1, 1], "strides": [1, 1, 1], "padding": "same", "data_format": "channels_last", "dilation_rate": [1, 1, 1], "activation": "linear", "use_bias": false, "kernel_initializer": {"class_name": "VarianceScaling", "config": {"scale": 1.0, "mode": "fan_avg", "distribution": "uniform", "seed": null}}, "bias_initializer": {"class_name": "Zeros", "config": {}}, "kernel_regularizer": null, "bias_regularizer": null, "activity_regularizer": null, "kernel_constraint": null, "bias_constraint": null}}, {"class_name": "BatchNormalization", "config": {"name": "batch_normalization_221", "trainable": true, "dtype": "float32", "axis": -1, "momentum": 0.99, "epsilon": 0.001, "center": true, "scale": true, "beta_initializer": {"class_name": "Zeros", "config": {}}, "gamma_initializer": {"class_name": "Ones", "config": {}}, "moving_mean_initializer": {"class_name": "Zeros", "config": {}}, "moving_variance_initializer": {"class_name": "Ones", "config": {}}, "beta_regularizer": null, "gamma_regularizer": null, "beta_constraint": null, "gamma_constraint": null}}, {"class_name": "ReLU", "config": {"name": "re_lu_204", "trainable": true, "dtype": "float32", "max_value": null, "negative_slope": 0.0, "threshold": 0.0}}], "build_input_shape": [null, 13, 56, 56, 32]}, "inbound_nodes": [[["re_lu_203", 0, 0, {}]]]}, {"name": "sequential_192", "class_name": "Sequential", "config": {"name": "sequential_192", "layers": [{"class_name": "Conv3D", "config": {"name": "conv3d_286", "trainable": true, "dtype": "float32", "filters": 64, "kernel_size": [1, 1, 1], "strides": [1, 1, 1], "padding": "same", "data_format": "channels_last", "dilation_rate": [1, 1, 1], "activation": "linear", "use_bias": false, "kernel_initializer": {"class_name": "VarianceScaling", "config": {"scale": 1.0, "mode": "fan_avg", "distribution": "uniform", "seed": null}}, "bias_initializer": {"class_name": "Zeros", "config": {}}, "kernel_regularizer": null, "bias_regularizer": null, "activity_regularizer": null, "kernel_constraint": null, "bias_constraint": null}}, {"class_name": "BatchNormalization", "config": {"name": "batch_normalization_274", "trainable": true, "dtype": "float32", "axis": -1, "momentum": 0.99, "epsilon": 0.001, "center": true, "scale": true, "beta_initializer": {"class_name": "Zeros", "config": {}}, "gamma_initializer": {"class_name": "Ones", "config": {}}, "moving_mean_initializer": {"class_name": "Zeros", "config": {}}, "moving_variance_initializer": {"class_name": "Ones", "config": {}}, "beta_regularizer": null, "gamma_regularizer": null, "beta_constraint": null, "gamma_constraint": null}}, {"class_name": "ReLU", "config": {"name": "re_lu_253", "trainable": true, "dtype": "float32", "max_value": null, "negative_slope": 0.0, "threshold": 0.0}}], "build_input_shape": [null, 2, 56, 56, 256]}, "inbound_nodes": [[["re_lu_252", 0, 0, {}]]]}, {"name": "sequential_156", "class_name": "Sequential", "config": {"name": "sequential_156", "layers": [{"class_name": "Conv3D", "config": {"name": "conv3d_231", "trainable": true, "dtype": "float32", "filters": 8, "kernel_size": [1, 3, 3], "strides": [1, 1, 1], "padding": "same", "data_format": "channels_last", "dilation_rate": [1, 1, 1], "activation": "linear", "use_bias": false, "kernel_initializer": {"class_name": "VarianceScaling", "config": {"scale": 1.0, "mode": "fan_avg", "distribution": "uniform", "seed": null}}, "bias_initializer": {"class_name": "Zeros", "config": {}}, "kernel_regularizer": null, "bias_regularizer": null, "activity_regularizer": null, "kernel_constraint": null, "bias_constraint": null}}, {"class_name": "BatchNormalization", "config": {"name": "batch_normalization_222", "trainable": true, "dtype": "float32", "axis": -1, "momentum": 0.99, "epsilon": 0.001, "center": true, "scale": true, "beta_initializer": {"class_name": "Zeros", "config": {}}, "gamma_initializer": {"class_name": "Ones", "config": {}}, "moving_mean_initializer": {"class_name": "Zeros", "config": {}}, "moving_variance_initializer": {"class_name": "Ones", "config": {}}, "beta_regularizer": null, "gamma_regularizer": null, "beta_constraint": null, "gamma_constraint": null}}, {"class_name": "ReLU", "config": {"name": "re_lu_205", "trainable": true, "dtype": "float32", "max_value": null, "negative_slope": 0.0, "threshold": 0.0}}], "build_input_shape": [null, 13, 56, 56, 8]}, "inbound_nodes": [[["sequential_155", 1, 0, {}]]]}, {"name": "sequential_193", "class_name": "Sequential", "config": {"name": "sequential_193", "layers": [{"class_name": "Conv3D", "config": {"name": "conv3d_287", "trainable": true, "dtype": "float32", "filters": 64, "kernel_size": [1, 3, 3], "strides": [1, 1, 1], "padding": "same", "data_format": "channels_last", "dilation_rate": [1, 1, 1], "activation": "linear", "use_bias": false, "kernel_initializer": {"class_name": "VarianceScaling", "config": {"scale": 1.0, "mode": "fan_avg", "distribution": "uniform", "seed": null}}, "bias_initializer": {"class_name": "Zeros", "config": {}}, "kernel_regularizer": null, "bias_regularizer": null, "activity_regularizer": null, "kernel_constraint": null, "bias_constraint": null}}, {"class_name": "BatchNormalization", "config": {"name": "batch_normalization_275", "trainable": true, "dtype": "float32", "axis": -1, "momentum": 0.99, "epsilon": 0.001, "center": true, "scale": true, "beta_initializer": {"class_name": "Zeros", "config": {}}, "gamma_initializer": {"class_name": "Ones", "config": {}}, "moving_mean_initializer": {"class_name": "Zeros", "config": {}}, "moving_variance_initializer": {"class_name": "Ones", "config": {}}, "beta_regularizer": null, "gamma_regularizer": null, "beta_constraint": null, "gamma_constraint": null}}, {"class_name": "ReLU", "config": {"name": "re_lu_254", "trainable": true, "dtype": "float32", "max_value": null, "negative_slope": 0.0, "threshold": 0.0}}], "build_input_shape": [null, 2, 56, 56, 64]}, "inbound_nodes": [[["sequential_192", 1, 0, {}]]]}, {"name": "conv3d_232", "class_name": "Conv3D", "config": {"name": "conv3d_232", "trainable": true, "dtype": "float32", "filters": 32, "kernel_size": [1, 1, 1], "strides": [1, 1, 1], "padding": "valid", "data_format": "channels_last", "dilation_rate": [1, 1, 1], "activation": "linear", "use_bias": false, "kernel_initializer": {"class_name": "VarianceScaling", "config": {"scale": 1.0, "mode": "fan_avg", "distribution": "uniform", "seed": null}}, "bias_initializer": {"class_name": "Zeros", "config": {}}, "kernel_regularizer": null, "bias_regularizer": null, "activity_regularizer": null, "kernel_constraint": null, "bias_constraint": null}, "inbound_nodes": [[["sequential_156", 1, 0, {}]]]}, {"name": "conv3d_288", "class_name": "Conv3D", "config": {"name": "conv3d_288", "trainable": true, "dtype": "float32", "filters": 256, "kernel_size": [1, 1, 1], "strides": [1, 1, 1], "padding": "valid", "data_format": "channels_last", "dilation_rate": [1, 1, 1], "activation": "linear", "use_bias": false, "kernel_initializer": {"class_name": "VarianceScaling", "config": {"scale": 1.0, "mode": "fan_avg", "distribution": "uniform", "seed": null}}, "bias_initializer": {"class_name": "Zeros", "config": {}}, "kernel_regularizer": null, "bias_regularizer": null, "activity_regularizer": null, "kernel_constraint": null, "bias_constraint": null}, "inbound_nodes": [[["sequential_193", 1, 0, {}]]]}, {"name": "batch_normalization_223", "class_name": "BatchNormalization", "config": {"name": "batch_normalization_223", "trainable": true, "dtype": "float32", "axis": -1, "momentum": 0.99, "epsilon": 0.001, "center": true, "scale": true, "beta_initializer": {"class_name": "Zeros", "config": {}}, "gamma_initializer": {"class_name": "Ones", "config": {}}, "moving_mean_initializer": {"class_name": "Zeros", "config": {}}, "moving_variance_initializer": {"class_name": "Ones", "config": {}}, "beta_regularizer": null, "gamma_regularizer": null, "beta_constraint": null, "gamma_constraint": null}, "inbound_nodes": [[["conv3d_232", 0, 0, {}]]]}, {"name": "batch_normalization_276", "class_name": "BatchNormalization", "config": {"name": "batch_normalization_276", "trainable": true, "dtype": "float32", "axis": -1, "momentum": 0.99, "epsilon": 0.001, "center": true, "scale": true, "beta_initializer": {"class_name": "Zeros", "config": {}}, "gamma_initializer": {"class_name": "Ones", "config": {}}, "moving_mean_initializer": {"class_name": "Zeros", "config": {}}, "moving_variance_initializer": {"class_name": "Ones", "config": {}}, "beta_regularizer": null, "gamma_regularizer": null, "beta_constraint": null, "gamma_constraint": null}, "inbound_nodes": [[["conv3d_288", 0, 0, {}]]]}, {"name": "add_67", "class_name": "Add", "config": {"name": "add_67", "trainable": true, "dtype": "float32"}, "inbound_nodes": [[["batch_normalization_223", 0, 0, {}], ["re_lu_203", 0, 0, {}]]]}, {"name": "add_83", "class_name": "Add", "config": {"name": "add_83", "trainable": true, "dtype": "float32"}, "inbound_nodes": [[["batch_normalization_276", 0, 0, {}], ["re_lu_252", 0, 0, {}]]]}, {"name": "re_lu_206", "class_name": "ReLU", "config": {"name": "re_lu_206", "trainable": true, "dtype": "float32", "max_value": null, "negative_slope": 0.0, "threshold": 0.0}, "inbound_nodes": [[["add_67", 0, 0, {}]]]}, {"name": "re_lu_255", "class_name": "ReLU", "config": {"name": "re_lu_255", "trainable": true, "dtype": "float32", "max_value": null, "negative_slope": 0.0, "threshold": 0.0}, "inbound_nodes": [[["add_83", 0, 0, {}]]]}, {"name": "conv3d_233", "class_name": "Conv3D", "config": {"name": "conv3d_233", "trainable": true, "dtype": "float32", "filters": 64, "kernel_size": [5, 1, 1], "strides": [8, 1, 1], "padding": "same", "data_format": "channels_last", "dilation_rate": [1, 1, 1], "activation": "linear", "use_bias": false, "kernel_initializer": {"class_name": "VarianceScaling", "config": {"scale": 1.0, "mode": "fan_avg", "distribution": "uniform", "seed": null}}, "bias_initializer": {"class_name": "Zeros", "config": {}}, "kernel_regularizer": null, "bias_regularizer": null, "activity_regularizer": null, "kernel_constraint": null, "bias_constraint": null}, "inbound_nodes": [[["re_lu_206", 0, 0, {}]]]}, {"name": "concatenate_12", "class_name": "Concatenate", "config": {"name": "concatenate_12", "trainable": true, "dtype": "float32", "axis": -1}, "inbound_nodes": [[["re_lu_255", 0, 0, {}], ["conv3d_233", 0, 0, {}]]]}, {"name": "sequential_158", "class_name": "Sequential", "config": {"name": "sequential_158", "layers": [{"class_name": "Conv3D", "config": {"name": "conv3d_235", "trainable": true, "dtype": "float32", "filters": 16, "kernel_size": [3, 1, 1], "strides": [1, 1, 1], "padding": "same", "data_format": "channels_last", "dilation_rate": [1, 1, 1], "activation": "linear", "use_bias": false, "kernel_initializer": {"class_name": "VarianceScaling", "config": {"scale": 1.0, "mode": "fan_avg", "distribution": "uniform", "seed": null}}, "bias_initializer": {"class_name": "Zeros", "config": {}}, "kernel_regularizer": null, "bias_regularizer": null, "activity_regularizer": null, "kernel_constraint": null, "bias_constraint": null}}, {"class_name": "BatchNormalization", "config": {"name": "batch_normalization_225", "trainable": true, "dtype": "float32", "axis": -1, "momentum": 0.99, "epsilon": 0.001, "center": true, "scale": true, "beta_initializer": {"class_name": "Zeros", "config": {}}, "gamma_initializer": {"class_name": "Ones", "config": {}}, "moving_mean_initializer": {"class_name": "Zeros", "config": {}}, "moving_variance_initializer": {"class_name": "Ones", "config": {}}, "beta_regularizer": null, "gamma_regularizer": null, "beta_constraint": null, "gamma_constraint": null}}, {"class_name": "ReLU", "config": {"name": "re_lu_207", "trainable": true, "dtype": "float32", "max_value": null, "negative_slope": 0.0, "threshold": 0.0}}], "build_input_shape": [null, 13, 56, 56, 32]}, "inbound_nodes": [[["re_lu_206", 0, 0, {}]]]}, {"name": "sequential_195", "class_name": "Sequential", "config": {"name": "sequential_195", "layers": [{"class_name": "Conv3D", "config": {"name": "conv3d_290", "trainable": true, "dtype": "float32", "filters": 128, "kernel_size": [1, 1, 1], "strides": [1, 1, 1], "padding": "same", "data_format": "channels_last", "dilation_rate": [1, 1, 1], "activation": "linear", "use_bias": false, "kernel_initializer": {"class_name": "VarianceScaling", "config": {"scale": 1.0, "mode": "fan_avg", "distribution": "uniform", "seed": null}}, "bias_initializer": {"class_name": "Zeros", "config": {}}, "kernel_regularizer": null, "bias_regularizer": null, "activity_regularizer": null, "kernel_constraint": null, "bias_constraint": null}}, {"class_name": "BatchNormalization", "config": {"name": "batch_normalization_278", "trainable": true, "dtype": "float32", "axis": -1, "momentum": 0.99, "epsilon": 0.001, "center": true, "scale": true, "beta_initializer": {"class_name": "Zeros", "config": {}}, "gamma_initializer": {"class_name": "Ones", "config": {}}, "moving_mean_initializer": {"class_name": "Zeros", "config": {}}, "moving_variance_initializer": {"class_name": "Ones", "config": {}}, "beta_regularizer": null, "gamma_regularizer": null, "beta_constraint": null, "gamma_constraint": null}}, {"class_name": "ReLU", "config": {"name": "re_lu_256", "trainable": true, "dtype": "float32", "max_value": null, "negative_slope": 0.0, "threshold": 0.0}}], "build_input_shape": [null, 2, 56, 56, 320]}, "inbound_nodes": [[["concatenate_12", 0, 0, {}]]]}, {"name": "sequential_159", "class_name": "Sequential", "config": {"name": "sequential_159", "layers": [{"class_name": "Conv3D", "config": {"name": "conv3d_236", "trainable": true, "dtype": "float32", "filters": 16, "kernel_size": [1, 3, 3], "strides": [1, 2, 2], "padding": "same", "data_format": "channels_last", "dilation_rate": [1, 1, 1], "activation": "linear", "use_bias": false, "kernel_initializer": {"class_name": "VarianceScaling", "config": {"scale": 1.0, "mode": "fan_avg", "distribution": "uniform", "seed": null}}, "bias_initializer": {"class_name": "Zeros", "config": {}}, "kernel_regularizer": null, "bias_regularizer": null, "activity_regularizer": null, "kernel_constraint": null, "bias_constraint": null}}, {"class_name": "BatchNormalization", "config": {"name": "batch_normalization_226", "trainable": true, "dtype": "float32", "axis": -1, "momentum": 0.99, "epsilon": 0.001, "center": true, "scale": true, "beta_initializer": {"class_name": "Zeros", "config": {}}, "gamma_initializer": {"class_name": "Ones", "config": {}}, "moving_mean_initializer": {"class_name": "Zeros", "config": {}}, "moving_variance_initializer": {"class_name": "Ones", "config": {}}, "beta_regularizer": null, "gamma_regularizer": null, "beta_constraint": null, "gamma_constraint": null}}, {"class_name": "ReLU", "config": {"name": "re_lu_208", "trainable": true, "dtype": "float32", "max_value": null, "negative_slope": 0.0, "threshold": 0.0}}], "build_input_shape": [null, 13, 56, 56, 16]}, "inbound_nodes": [[["sequential_158", 1, 0, {}]]]}, {"name": "sequential_196", "class_name": "Sequential", "config": {"name": "sequential_196", "layers": [{"class_name": "Conv3D", "config": {"name": "conv3d_291", "trainable": true, "dtype": "float32", "filters": 128, "kernel_size": [1, 3, 3], "strides": [1, 2, 2], "padding": "same", "data_format": "channels_last", "dilation_rate": [1, 1, 1], "activation": "linear", "use_bias": false, "kernel_initializer": {"class_name": "VarianceScaling", "config": {"scale": 1.0, "mode": "fan_avg", "distribution": "uniform", "seed": null}}, "bias_initializer": {"class_name": "Zeros", "config": {}}, "kernel_regularizer": null, "bias_regularizer": null, "activity_regularizer": null, "kernel_constraint": null, "bias_constraint": null}}, {"class_name": "BatchNormalization", "config": {"name": "batch_normalization_279", "trainable": true, "dtype": "float32", "axis": -1, "momentum": 0.99, "epsilon": 0.001, "center": true, "scale": true, "beta_initializer": {"class_name": "Zeros", "config": {}}, "gamma_initializer": {"class_name": "Ones", "config": {}}, "moving_mean_initializer": {"class_name": "Zeros", "config": {}}, "moving_variance_initializer": {"class_name": "Ones", "config": {}}, "beta_regularizer": null, "gamma_regularizer": null, "beta_constraint": null, "gamma_constraint": null}}, {"class_name": "ReLU", "config": {"name": "re_lu_257", "trainable": true, "dtype": "float32", "max_value": null, "negative_slope": 0.0, "threshold": 0.0}}], "build_input_shape": [null, 2, 56, 56, 128]}, "inbound_nodes": [[["sequential_195", 1, 0, {}]]]}, {"name": "conv3d_237", "class_name": "Conv3D", "config": {"name": "conv3d_237", "trainable": true, "dtype": "float32", "filters": 64, "kernel_size": [1, 1, 1], "strides": [1, 1, 1], "padding": "valid", "data_format": "channels_last", "dilation_rate": [1, 1, 1], "activation": "linear", "use_bias": false, "kernel_initializer": {"class_name": "VarianceScaling", "config": {"scale": 1.0, "mode": "fan_avg", "distribution": "uniform", "seed": null}}, "bias_initializer": {"class_name": "Zeros", "config": {}}, "kernel_regularizer": null, "bias_regularizer": null, "activity_regularizer": null, "kernel_constraint": null, "bias_constraint": null}, "inbound_nodes": [[["sequential_159", 1, 0, {}]]]}, {"name": "conv3d_292", "class_name": "Conv3D", "config": {"name": "conv3d_292", "trainable": true, "dtype": "float32", "filters": 512, "kernel_size": [1, 1, 1], "strides": [1, 1, 1], "padding": "valid", "data_format": "channels_last", "dilation_rate": [1, 1, 1], "activation": "linear", "use_bias": false, "kernel_initializer": {"class_name": "VarianceScaling", "config": {"scale": 1.0, "mode": "fan_avg", "distribution": "uniform", "seed": null}}, "bias_initializer": {"class_name": "Zeros", "config": {}}, "kernel_regularizer": null, "bias_regularizer": null, "activity_regularizer": null, "kernel_constraint": null, "bias_constraint": null}, "inbound_nodes": [[["sequential_196", 1, 0, {}]]]}, {"name": "batch_normalization_227", "class_name": "BatchNormalization", "config": {"name": "batch_normalization_227", "trainable": true, "dtype": "float32", "axis": -1, "momentum": 0.99, "epsilon": 0.001, "center": true, "scale": true, "beta_initializer": {"class_name": "Zeros", "config": {}}, "gamma_initializer": {"class_name": "Ones", "config": {}}, "moving_mean_initializer": {"class_name": "Zeros", "config": {}}, "moving_variance_initializer": {"class_name": "Ones", "config": {}}, "beta_regularizer": null, "gamma_regularizer": null, "beta_constraint": null, "gamma_constraint": null}, "inbound_nodes": [[["conv3d_237", 0, 0, {}]]]}, {"name": "sequential_157", "class_name": "Sequential", "config": {"name": "sequential_157", "layers": [{"class_name": "Conv3D", "config": {"name": "conv3d_234", "trainable": true, "dtype": "float32", "filters": 64, "kernel_size": [1, 1, 1], "strides": [1, 2, 2], "padding": "valid", "data_format": "channels_last", "dilation_rate": [1, 1, 1], "activation": "linear", "use_bias": false, "kernel_initializer": {"class_name": "VarianceScaling", "config": {"scale": 1.0, "mode": "fan_avg", "distribution": "uniform", "seed": null}}, "bias_initializer": {"class_name": "Zeros", "config": {}}, "kernel_regularizer": null, "bias_regularizer": null, "activity_regularizer": null, "kernel_constraint": null, "bias_constraint": null}}, {"class_name": "BatchNormalization", "config": {"name": "batch_normalization_224", "trainable": true, "dtype": "float32", "axis": -1, "momentum": 0.99, "epsilon": 0.001, "center": true, "scale": true, "beta_initializer": {"class_name": "Zeros", "config": {}}, "gamma_initializer": {"class_name": "Ones", "config": {}}, "moving_mean_initializer": {"class_name": "Zeros", "config": {}}, "moving_variance_initializer": {"class_name": "Ones", "config": {}}, "beta_regularizer": null, "gamma_regularizer": null, "beta_constraint": null, "gamma_constraint": null}}], "build_input_shape": [null, 13, 56, 56, 32]}, "inbound_nodes": [[["re_lu_206", 0, 0, {}]]]}, {"name": "batch_normalization_280", "class_name": "BatchNormalization", "config": {"name": "batch_normalization_280", "trainable": true, "dtype": "float32", "axis": -1, "momentum": 0.99, "epsilon": 0.001, "center": true, "scale": true, "beta_initializer": {"class_name": "Zeros", "config": {}}, "gamma_initializer": {"class_name": "Ones", "config": {}}, "moving_mean_initializer": {"class_name": "Zeros", "config": {}}, "moving_variance_initializer": {"class_name": "Ones", "config": {}}, "beta_regularizer": null, "gamma_regularizer": null, "beta_constraint": null, "gamma_constraint": null}, "inbound_nodes": [[["conv3d_292", 0, 0, {}]]]}, {"name": "sequential_194", "class_name": "Sequential", "config": {"name": "sequential_194", "layers": [{"class_name": "Conv3D", "config": {"name": "conv3d_289", "trainable": true, "dtype": "float32", "filters": 512, "kernel_size": [1, 1, 1], "strides": [1, 2, 2], "padding": "valid", "data_format": "channels_last", "dilation_rate": [1, 1, 1], "activation": "linear", "use_bias": false, "kernel_initializer": {"class_name": "VarianceScaling", "config": {"scale": 1.0, "mode": "fan_avg", "distribution": "uniform", "seed": null}}, "bias_initializer": {"class_name": "Zeros", "config": {}}, "kernel_regularizer": null, "bias_regularizer": null, "activity_regularizer": null, "kernel_constraint": null, "bias_constraint": null}}, {"class_name": "BatchNormalization", "config": {"name": "batch_normalization_277", "trainable": true, "dtype": "float32", "axis": -1, "momentum": 0.99, "epsilon": 0.001, "center": true, "scale": true, "beta_initializer": {"class_name": "Zeros", "config": {}}, "gamma_initializer": {"class_name": "Ones", "config": {}}, "moving_mean_initializer": {"class_name": "Zeros", "config": {}}, "moving_variance_initializer": {"class_name": "Ones", "config": {}}, "beta_regularizer": null, "gamma_regularizer": null, "beta_constraint": null, "gamma_constraint": null}}], "build_input_shape": [null, 2, 56, 56, 320]}, "inbound_nodes": [[["concatenate_12", 0, 0, {}]]]}, {"name": "add_68", "class_name": "Add", "config": {"name": "add_68", "trainable": true, "dtype": "float32"}, "inbound_nodes": [[["batch_normalization_227", 0, 0, {}], ["sequential_157", 1, 0, {}]]]}, {"name": "add_84", "class_name": "Add", "config": {"name": "add_84", "trainable": true, "dtype": "float32"}, "inbound_nodes": [[["batch_normalization_280", 0, 0, {}], ["sequential_194", 1, 0, {}]]]}, {"name": "re_lu_209", "class_name": "ReLU", "config": {"name": "re_lu_209", "trainable": true, "dtype": "float32", "max_value": null, "negative_slope": 0.0, "threshold": 0.0}, "inbound_nodes": [[["add_68", 0, 0, {}]]]}, {"name": "re_lu_258", "class_name": "ReLU", "config": {"name": "re_lu_258", "trainable": true, "dtype": "float32", "max_value": null, "negative_slope": 0.0, "threshold": 0.0}, "inbound_nodes": [[["add_84", 0, 0, {}]]]}, {"name": "sequential_160", "class_name": "Sequential", "config": {"name": "sequential_160", "layers": [{"class_name": "Conv3D", "config": {"name": "conv3d_238", "trainable": true, "dtype": "float32", "filters": 16, "kernel_size": [3, 1, 1], "strides": [1, 1, 1], "padding": "same", "data_format": "channels_last", "dilation_rate": [1, 1, 1], "activation": "linear", "use_bias": false, "kernel_initializer": {"class_name": "VarianceScaling", "config": {"scale": 1.0, "mode": "fan_avg", "distribution": "uniform", "seed": null}}, "bias_initializer": {"class_name": "Zeros", "config": {}}, "kernel_regularizer": null, "bias_regularizer": null, "activity_regularizer": null, "kernel_constraint": null, "bias_constraint": null}}, {"class_name": "BatchNormalization", "config": {"name": "batch_normalization_228", "trainable": true, "dtype": "float32", "axis": -1, "momentum": 0.99, "epsilon": 0.001, "center": true, "scale": true, "beta_initializer": {"class_name": "Zeros", "config": {}}, "gamma_initializer": {"class_name": "Ones", "config": {}}, "moving_mean_initializer": {"class_name": "Zeros", "config": {}}, "moving_variance_initializer": {"class_name": "Ones", "config": {}}, "beta_regularizer": null, "gamma_regularizer": null, "beta_constraint": null, "gamma_constraint": null}}, {"class_name": "ReLU", "config": {"name": "re_lu_210", "trainable": true, "dtype": "float32", "max_value": null, "negative_slope": 0.0, "threshold": 0.0}}], "build_input_shape": [null, 13, 28, 28, 64]}, "inbound_nodes": [[["re_lu_209", 0, 0, {}]]]}, {"name": "sequential_197", "class_name": "Sequential", "config": {"name": "sequential_197", "layers": [{"class_name": "Conv3D", "config": {"name": "conv3d_293", "trainable": true, "dtype": "float32", "filters": 128, "kernel_size": [1, 1, 1], "strides": [1, 1, 1], "padding": "same", "data_format": "channels_last", "dilation_rate": [1, 1, 1], "activation": "linear", "use_bias": false, "kernel_initializer": {"class_name": "VarianceScaling", "config": {"scale": 1.0, "mode": "fan_avg", "distribution": "uniform", "seed": null}}, "bias_initializer": {"class_name": "Zeros", "config": {}}, "kernel_regularizer": null, "bias_regularizer": null, "activity_regularizer": null, "kernel_constraint": null, "bias_constraint": null}}, {"class_name": "BatchNormalization", "config": {"name": "batch_normalization_281", "trainable": true, "dtype": "float32", "axis": -1, "momentum": 0.99, "epsilon": 0.001, "center": true, "scale": true, "beta_initializer": {"class_name": "Zeros", "config": {}}, "gamma_initializer": {"class_name": "Ones", "config": {}}, "moving_mean_initializer": {"class_name": "Zeros", "config": {}}, "moving_variance_initializer": {"class_name": "Ones", "config": {}}, "beta_regularizer": null, "gamma_regularizer": null, "beta_constraint": null, "gamma_constraint": null}}, {"class_name": "ReLU", "config": {"name": "re_lu_259", "trainable": true, "dtype": "float32", "max_value": null, "negative_slope": 0.0, "threshold": 0.0}}], "build_input_shape": [null, 2, 28, 28, 512]}, "inbound_nodes": [[["re_lu_258", 0, 0, {}]]]}, {"name": "sequential_161", "class_name": "Sequential", "config": {"name": "sequential_161", "layers": [{"class_name": "Conv3D", "config": {"name": "conv3d_239", "trainable": true, "dtype": "float32", "filters": 16, "kernel_size": [1, 3, 3], "strides": [1, 1, 1], "padding": "same", "data_format": "channels_last", "dilation_rate": [1, 1, 1], "activation": "linear", "use_bias": false, "kernel_initializer": {"class_name": "VarianceScaling", "config": {"scale": 1.0, "mode": "fan_avg", "distribution": "uniform", "seed": null}}, "bias_initializer": {"class_name": "Zeros", "config": {}}, "kernel_regularizer": null, "bias_regularizer": null, "activity_regularizer": null, "kernel_constraint": null, "bias_constraint": null}}, {"class_name": "BatchNormalization", "config": {"name": "batch_normalization_229", "trainable": true, "dtype": "float32", "axis": -1, "momentum": 0.99, "epsilon": 0.001, "center": true, "scale": true, "beta_initializer": {"class_name": "Zeros", "config": {}}, "gamma_initializer": {"class_name": "Ones", "config": {}}, "moving_mean_initializer": {"class_name": "Zeros", "config": {}}, "moving_variance_initializer": {"class_name": "Ones", "config": {}}, "beta_regularizer": null, "gamma_regularizer": null, "beta_constraint": null, "gamma_constraint": null}}, {"class_name": "ReLU", "config": {"name": "re_lu_211", "trainable": true, "dtype": "float32", "max_value": null, "negative_slope": 0.0, "threshold": 0.0}}], "build_input_shape": [null, 13, 28, 28, 16]}, "inbound_nodes": [[["sequential_160", 1, 0, {}]]]}, {"name": "sequential_198", "class_name": "Sequential", "config": {"name": "sequential_198", "layers": [{"class_name": "Conv3D", "config": {"name": "conv3d_294", "trainable": true, "dtype": "float32", "filters": 128, "kernel_size": [1, 3, 3], "strides": [1, 1, 1], "padding": "same", "data_format": "channels_last", "dilation_rate": [1, 1, 1], "activation": "linear", "use_bias": false, "kernel_initializer": {"class_name": "VarianceScaling", "config": {"scale": 1.0, "mode": "fan_avg", "distribution": "uniform", "seed": null}}, "bias_initializer": {"class_name": "Zeros", "config": {}}, "kernel_regularizer": null, "bias_regularizer": null, "activity_regularizer": null, "kernel_constraint": null, "bias_constraint": null}}, {"class_name": "BatchNormalization", "config": {"name": "batch_normalization_282", "trainable": true, "dtype": "float32", "axis": -1, "momentum": 0.99, "epsilon": 0.001, "center": true, "scale": true, "beta_initializer": {"class_name": "Zeros", "config": {}}, "gamma_initializer": {"class_name": "Ones", "config": {}}, "moving_mean_initializer": {"class_name": "Zeros", "config": {}}, "moving_variance_initializer": {"class_name": "Ones", "config": {}}, "beta_regularizer": null, "gamma_regularizer": null, "beta_constraint": null, "gamma_constraint": null}}, {"class_name": "ReLU", "config": {"name": "re_lu_260", "trainable": true, "dtype": "float32", "max_value": null, "negative_slope": 0.0, "threshold": 0.0}}], "build_input_shape": [null, 2, 28, 28, 128]}, "inbound_nodes": [[["sequential_197", 1, 0, {}]]]}, {"name": "conv3d_240", "class_name": "Conv3D", "config": {"name": "conv3d_240", "trainable": true, "dtype": "float32", "filters": 64, "kernel_size": [1, 1, 1], "strides": [1, 1, 1], "padding": "valid", "data_format": "channels_last", "dilation_rate": [1, 1, 1], "activation": "linear", "use_bias": false, "kernel_initializer": {"class_name": "VarianceScaling", "config": {"scale": 1.0, "mode": "fan_avg", "distribution": "uniform", "seed": null}}, "bias_initializer": {"class_name": "Zeros", "config": {}}, "kernel_regularizer": null, "bias_regularizer": null, "activity_regularizer": null, "kernel_constraint": null, "bias_constraint": null}, "inbound_nodes": [[["sequential_161", 1, 0, {}]]]}, {"name": "conv3d_295", "class_name": "Conv3D", "config": {"name": "conv3d_295", "trainable": true, "dtype": "float32", "filters": 512, "kernel_size": [1, 1, 1], "strides": [1, 1, 1], "padding": "valid", "data_format": "channels_last", "dilation_rate": [1, 1, 1], "activation": "linear", "use_bias": false, "kernel_initializer": {"class_name": "VarianceScaling", "config": {"scale": 1.0, "mode": "fan_avg", "distribution": "uniform", "seed": null}}, "bias_initializer": {"class_name": "Zeros", "config": {}}, "kernel_regularizer": null, "bias_regularizer": null, "activity_regularizer": null, "kernel_constraint": null, "bias_constraint": null}, "inbound_nodes": [[["sequential_198", 1, 0, {}]]]}, {"name": "batch_normalization_230", "class_name": "BatchNormalization", "config": {"name": "batch_normalization_230", "trainable": true, "dtype": "float32", "axis": -1, "momentum": 0.99, "epsilon": 0.001, "center": true, "scale": true, "beta_initializer": {"class_name": "Zeros", "config": {}}, "gamma_initializer": {"class_name": "Ones", "config": {}}, "moving_mean_initializer": {"class_name": "Zeros", "config": {}}, "moving_variance_initializer": {"class_name": "Ones", "config": {}}, "beta_regularizer": null, "gamma_regularizer": null, "beta_constraint": null, "gamma_constraint": null}, "inbound_nodes": [[["conv3d_240", 0, 0, {}]]]}, {"name": "batch_normalization_283", "class_name": "BatchNormalization", "config": {"name": "batch_normalization_283", "trainable": true, "dtype": "float32", "axis": -1, "momentum": 0.99, "epsilon": 0.001, "center": true, "scale": true, "beta_initializer": {"class_name": "Zeros", "config": {}}, "gamma_initializer": {"class_name": "Ones", "config": {}}, "moving_mean_initializer": {"class_name": "Zeros", "config": {}}, "moving_variance_initializer": {"class_name": "Ones", "config": {}}, "beta_regularizer": null, "gamma_regularizer": null, "beta_constraint": null, "gamma_constraint": null}, "inbound_nodes": [[["conv3d_295", 0, 0, {}]]]}, {"name": "add_69", "class_name": "Add", "config": {"name": "add_69", "trainable": true, "dtype": "float32"}, "inbound_nodes": [[["batch_normalization_230", 0, 0, {}], ["re_lu_209", 0, 0, {}]]]}, {"name": "add_85", "class_name": "Add", "config": {"name": "add_85", "trainable": true, "dtype": "float32"}, "inbound_nodes": [[["batch_normalization_283", 0, 0, {}], ["re_lu_258", 0, 0, {}]]]}, {"name": "re_lu_212", "class_name": "ReLU", "config": {"name": "re_lu_212", "trainable": true, "dtype": "float32", "max_value": null, "negative_slope": 0.0, "threshold": 0.0}, "inbound_nodes": [[["add_69", 0, 0, {}]]]}, {"name": "re_lu_261", "class_name": "ReLU", "config": {"name": "re_lu_261", "trainable": true, "dtype": "float32", "max_value": null, "negative_slope": 0.0, "threshold": 0.0}, "inbound_nodes": [[["add_85", 0, 0, {}]]]}, {"name": "sequential_162", "class_name": "Sequential", "config": {"name": "sequential_162", "layers": [{"class_name": "Conv3D", "config": {"name": "conv3d_241", "trainable": true, "dtype": "float32", "filters": 16, "kernel_size": [3, 1, 1], "strides": [1, 1, 1], "padding": "same", "data_format": "channels_last", "dilation_rate": [1, 1, 1], "activation": "linear", "use_bias": false, "kernel_initializer": {"class_name": "VarianceScaling", "config": {"scale": 1.0, "mode": "fan_avg", "distribution": "uniform", "seed": null}}, "bias_initializer": {"class_name": "Zeros", "config": {}}, "kernel_regularizer": null, "bias_regularizer": null, "activity_regularizer": null, "kernel_constraint": null, "bias_constraint": null}}, {"class_name": "BatchNormalization", "config": {"name": "batch_normalization_231", "trainable": true, "dtype": "float32", "axis": -1, "momentum": 0.99, "epsilon": 0.001, "center": true, "scale": true, "beta_initializer": {"class_name": "Zeros", "config": {}}, "gamma_initializer": {"class_name": "Ones", "config": {}}, "moving_mean_initializer": {"class_name": "Zeros", "config": {}}, "moving_variance_initializer": {"class_name": "Ones", "config": {}}, "beta_regularizer": null, "gamma_regularizer": null, "beta_constraint": null, "gamma_constraint": null}}, {"class_name": "ReLU", "config": {"name": "re_lu_213", "trainable": true, "dtype": "float32", "max_value": null, "negative_slope": 0.0, "threshold": 0.0}}], "build_input_shape": [null, 13, 28, 28, 64]}, "inbound_nodes": [[["re_lu_212", 0, 0, {}]]]}, {"name": "sequential_199", "class_name": "Sequential", "config": {"name": "sequential_199", "layers": [{"class_name": "Conv3D", "config": {"name": "conv3d_296", "trainable": true, "dtype": "float32", "filters": 128, "kernel_size": [1, 1, 1], "strides": [1, 1, 1], "padding": "same", "data_format": "channels_last", "dilation_rate": [1, 1, 1], "activation": "linear", "use_bias": false, "kernel_initializer": {"class_name": "VarianceScaling", "config": {"scale": 1.0, "mode": "fan_avg", "distribution": "uniform", "seed": null}}, "bias_initializer": {"class_name": "Zeros", "config": {}}, "kernel_regularizer": null, "bias_regularizer": null, "activity_regularizer": null, "kernel_constraint": null, "bias_constraint": null}}, {"class_name": "BatchNormalization", "config": {"name": "batch_normalization_284", "trainable": true, "dtype": "float32", "axis": -1, "momentum": 0.99, "epsilon": 0.001, "center": true, "scale": true, "beta_initializer": {"class_name": "Zeros", "config": {}}, "gamma_initializer": {"class_name": "Ones", "config": {}}, "moving_mean_initializer": {"class_name": "Zeros", "config": {}}, "moving_variance_initializer": {"class_name": "Ones", "config": {}}, "beta_regularizer": null, "gamma_regularizer": null, "beta_constraint": null, "gamma_constraint": null}}, {"class_name": "ReLU", "config": {"name": "re_lu_262", "trainable": true, "dtype": "float32", "max_value": null, "negative_slope": 0.0, "threshold": 0.0}}], "build_input_shape": [null, 2, 28, 28, 512]}, "inbound_nodes": [[["re_lu_261", 0, 0, {}]]]}, {"name": "sequential_163", "class_name": "Sequential", "config": {"name": "sequential_163", "layers": [{"class_name": "Conv3D", "config": {"name": "conv3d_242", "trainable": true, "dtype": "float32", "filters": 16, "kernel_size": [1, 3, 3], "strides": [1, 1, 1], "padding": "same", "data_format": "channels_last", "dilation_rate": [1, 1, 1], "activation": "linear", "use_bias": false, "kernel_initializer": {"class_name": "VarianceScaling", "config": {"scale": 1.0, "mode": "fan_avg", "distribution": "uniform", "seed": null}}, "bias_initializer": {"class_name": "Zeros", "config": {}}, "kernel_regularizer": null, "bias_regularizer": null, "activity_regularizer": null, "kernel_constraint": null, "bias_constraint": null}}, {"class_name": "BatchNormalization", "config": {"name": "batch_normalization_232", "trainable": true, "dtype": "float32", "axis": -1, "momentum": 0.99, "epsilon": 0.001, "center": true, "scale": true, "beta_initializer": {"class_name": "Zeros", "config": {}}, "gamma_initializer": {"class_name": "Ones", "config": {}}, "moving_mean_initializer": {"class_name": "Zeros", "config": {}}, "moving_variance_initializer": {"class_name": "Ones", "config": {}}, "beta_regularizer": null, "gamma_regularizer": null, "beta_constraint": null, "gamma_constraint": null}}, {"class_name": "ReLU", "config": {"name": "re_lu_214", "trainable": true, "dtype": "float32", "max_value": null, "negative_slope": 0.0, "threshold": 0.0}}], "build_input_shape": [null, 13, 28, 28, 16]}, "inbound_nodes": [[["sequential_162", 1, 0, {}]]]}, {"name": "sequential_200", "class_name": "Sequential", "config": {"name": "sequential_200", "layers": [{"class_name": "Conv3D", "config": {"name": "conv3d_297", "trainable": true, "dtype": "float32", "filters": 128, "kernel_size": [1, 3, 3], "strides": [1, 1, 1], "padding": "same", "data_format": "channels_last", "dilation_rate": [1, 1, 1], "activation": "linear", "use_bias": false, "kernel_initializer": {"class_name": "VarianceScaling", "config": {"scale": 1.0, "mode": "fan_avg", "distribution": "uniform", "seed": null}}, "bias_initializer": {"class_name": "Zeros", "config": {}}, "kernel_regularizer": null, "bias_regularizer": null, "activity_regularizer": null, "kernel_constraint": null, "bias_constraint": null}}, {"class_name": "BatchNormalization", "config": {"name": "batch_normalization_285", "trainable": true, "dtype": "float32", "axis": -1, "momentum": 0.99, "epsilon": 0.001, "center": true, "scale": true, "beta_initializer": {"class_name": "Zeros", "config": {}}, "gamma_initializer": {"class_name": "Ones", "config": {}}, "moving_mean_initializer": {"class_name": "Zeros", "config": {}}, "moving_variance_initializer": {"class_name": "Ones", "config": {}}, "beta_regularizer": null, "gamma_regularizer": null, "beta_constraint": null, "gamma_constraint": null}}, {"class_name": "ReLU", "config": {"name": "re_lu_263", "trainable": true, "dtype": "float32", "max_value": null, "negative_slope": 0.0, "threshold": 0.0}}], "build_input_shape": [null, 2, 28, 28, 128]}, "inbound_nodes": [[["sequential_199", 1, 0, {}]]]}, {"name": "conv3d_243", "class_name": "Conv3D", "config": {"name": "conv3d_243", "trainable": true, "dtype": "float32", "filters": 64, "kernel_size": [1, 1, 1], "strides": [1, 1, 1], "padding": "valid", "data_format": "channels_last", "dilation_rate": [1, 1, 1], "activation": "linear", "use_bias": false, "kernel_initializer": {"class_name": "VarianceScaling", "config": {"scale": 1.0, "mode": "fan_avg", "distribution": "uniform", "seed": null}}, "bias_initializer": {"class_name": "Zeros", "config": {}}, "kernel_regularizer": null, "bias_regularizer": null, "activity_regularizer": null, "kernel_constraint": null, "bias_constraint": null}, "inbound_nodes": [[["sequential_163", 1, 0, {}]]]}, {"name": "conv3d_298", "class_name": "Conv3D", "config": {"name": "conv3d_298", "trainable": true, "dtype": "float32", "filters": 512, "kernel_size": [1, 1, 1], "strides": [1, 1, 1], "padding": "valid", "data_format": "channels_last", "dilation_rate": [1, 1, 1], "activation": "linear", "use_bias": false, "kernel_initializer": {"class_name": "VarianceScaling", "config": {"scale": 1.0, "mode": "fan_avg", "distribution": "uniform", "seed": null}}, "bias_initializer": {"class_name": "Zeros", "config": {}}, "kernel_regularizer": null, "bias_regularizer": null, "activity_regularizer": null, "kernel_constraint": null, "bias_constraint": null}, "inbound_nodes": [[["sequential_200", 1, 0, {}]]]}, {"name": "batch_normalization_233", "class_name": "BatchNormalization", "config": {"name": "batch_normalization_233", "trainable": true, "dtype": "float32", "axis": -1, "momentum": 0.99, "epsilon": 0.001, "center": true, "scale": true, "beta_initializer": {"class_name": "Zeros", "config": {}}, "gamma_initializer": {"class_name": "Ones", "config": {}}, "moving_mean_initializer": {"class_name": "Zeros", "config": {}}, "moving_variance_initializer": {"class_name": "Ones", "config": {}}, "beta_regularizer": null, "gamma_regularizer": null, "beta_constraint": null, "gamma_constraint": null}, "inbound_nodes": [[["conv3d_243", 0, 0, {}]]]}, {"name": "batch_normalization_286", "class_name": "BatchNormalization", "config": {"name": "batch_normalization_286", "trainable": true, "dtype": "float32", "axis": -1, "momentum": 0.99, "epsilon": 0.001, "center": true, "scale": true, "beta_initializer": {"class_name": "Zeros", "config": {}}, "gamma_initializer": {"class_name": "Ones", "config": {}}, "moving_mean_initializer": {"class_name": "Zeros", "config": {}}, "moving_variance_initializer": {"class_name": "Ones", "config": {}}, "beta_regularizer": null, "gamma_regularizer": null, "beta_constraint": null, "gamma_constraint": null}, "inbound_nodes": [[["conv3d_298", 0, 0, {}]]]}, {"name": "add_70", "class_name": "Add", "config": {"name": "add_70", "trainable": true, "dtype": "float32"}, "inbound_nodes": [[["batch_normalization_233", 0, 0, {}], ["re_lu_212", 0, 0, {}]]]}, {"name": "add_86", "class_name": "Add", "config": {"name": "add_86", "trainable": true, "dtype": "float32"}, "inbound_nodes": [[["batch_normalization_286", 0, 0, {}], ["re_lu_261", 0, 0, {}]]]}, {"name": "re_lu_215", "class_name": "ReLU", "config": {"name": "re_lu_215", "trainable": true, "dtype": "float32", "max_value": null, "negative_slope": 0.0, "threshold": 0.0}, "inbound_nodes": [[["add_70", 0, 0, {}]]]}, {"name": "re_lu_264", "class_name": "ReLU", "config": {"name": "re_lu_264", "trainable": true, "dtype": "float32", "max_value": null, "negative_slope": 0.0, "threshold": 0.0}, "inbound_nodes": [[["add_86", 0, 0, {}]]]}, {"name": "sequential_164", "class_name": "Sequential", "config": {"name": "sequential_164", "layers": [{"class_name": "Conv3D", "config": {"name": "conv3d_244", "trainable": true, "dtype": "float32", "filters": 16, "kernel_size": [3, 1, 1], "strides": [1, 1, 1], "padding": "same", "data_format": "channels_last", "dilation_rate": [1, 1, 1], "activation": "linear", "use_bias": false, "kernel_initializer": {"class_name": "VarianceScaling", "config": {"scale": 1.0, "mode": "fan_avg", "distribution": "uniform", "seed": null}}, "bias_initializer": {"class_name": "Zeros", "config": {}}, "kernel_regularizer": null, "bias_regularizer": null, "activity_regularizer": null, "kernel_constraint": null, "bias_constraint": null}}, {"class_name": "BatchNormalization", "config": {"name": "batch_normalization_234", "trainable": true, "dtype": "float32", "axis": -1, "momentum": 0.99, "epsilon": 0.001, "center": true, "scale": true, "beta_initializer": {"class_name": "Zeros", "config": {}}, "gamma_initializer": {"class_name": "Ones", "config": {}}, "moving_mean_initializer": {"class_name": "Zeros", "config": {}}, "moving_variance_initializer": {"class_name": "Ones", "config": {}}, "beta_regularizer": null, "gamma_regularizer": null, "beta_constraint": null, "gamma_constraint": null}}, {"class_name": "ReLU", "config": {"name": "re_lu_216", "trainable": true, "dtype": "float32", "max_value": null, "negative_slope": 0.0, "threshold": 0.0}}], "build_input_shape": [null, 13, 28, 28, 64]}, "inbound_nodes": [[["re_lu_215", 0, 0, {}]]]}, {"name": "sequential_201", "class_name": "Sequential", "config": {"name": "sequential_201", "layers": [{"class_name": "Conv3D", "config": {"name": "conv3d_299", "trainable": true, "dtype": "float32", "filters": 128, "kernel_size": [1, 1, 1], "strides": [1, 1, 1], "padding": "same", "data_format": "channels_last", "dilation_rate": [1, 1, 1], "activation": "linear", "use_bias": false, "kernel_initializer": {"class_name": "VarianceScaling", "config": {"scale": 1.0, "mode": "fan_avg", "distribution": "uniform", "seed": null}}, "bias_initializer": {"class_name": "Zeros", "config": {}}, "kernel_regularizer": null, "bias_regularizer": null, "activity_regularizer": null, "kernel_constraint": null, "bias_constraint": null}}, {"class_name": "BatchNormalization", "config": {"name": "batch_normalization_287", "trainable": true, "dtype": "float32", "axis": -1, "momentum": 0.99, "epsilon": 0.001, "center": true, "scale": true, "beta_initializer": {"class_name": "Zeros", "config": {}}, "gamma_initializer": {"class_name": "Ones", "config": {}}, "moving_mean_initializer": {"class_name": "Zeros", "config": {}}, "moving_variance_initializer": {"class_name": "Ones", "config": {}}, "beta_regularizer": null, "gamma_regularizer": null, "beta_constraint": null, "gamma_constraint": null}}, {"class_name": "ReLU", "config": {"name": "re_lu_265", "trainable": true, "dtype": "float32", "max_value": null, "negative_slope": 0.0, "threshold": 0.0}}], "build_input_shape": [null, 2, 28, 28, 512]}, "inbound_nodes": [[["re_lu_264", 0, 0, {}]]]}, {"name": "sequential_165", "class_name": "Sequential", "config": {"name": "sequential_165", "layers": [{"class_name": "Conv3D", "config": {"name": "conv3d_245", "trainable": true, "dtype": "float32", "filters": 16, "kernel_size": [1, 3, 3], "strides": [1, 1, 1], "padding": "same", "data_format": "channels_last", "dilation_rate": [1, 1, 1], "activation": "linear", "use_bias": false, "kernel_initializer": {"class_name": "VarianceScaling", "config": {"scale": 1.0, "mode": "fan_avg", "distribution": "uniform", "seed": null}}, "bias_initializer": {"class_name": "Zeros", "config": {}}, "kernel_regularizer": null, "bias_regularizer": null, "activity_regularizer": null, "kernel_constraint": null, "bias_constraint": null}}, {"class_name": "BatchNormalization", "config": {"name": "batch_normalization_235", "trainable": true, "dtype": "float32", "axis": -1, "momentum": 0.99, "epsilon": 0.001, "center": true, "scale": true, "beta_initializer": {"class_name": "Zeros", "config": {}}, "gamma_initializer": {"class_name": "Ones", "config": {}}, "moving_mean_initializer": {"class_name": "Zeros", "config": {}}, "moving_variance_initializer": {"class_name": "Ones", "config": {}}, "beta_regularizer": null, "gamma_regularizer": null, "beta_constraint": null, "gamma_constraint": null}}, {"class_name": "ReLU", "config": {"name": "re_lu_217", "trainable": true, "dtype": "float32", "max_value": null, "negative_slope": 0.0, "threshold": 0.0}}], "build_input_shape": [null, 13, 28, 28, 16]}, "inbound_nodes": [[["sequential_164", 1, 0, {}]]]}, {"name": "sequential_202", "class_name": "Sequential", "config": {"name": "sequential_202", "layers": [{"class_name": "Conv3D", "config": {"name": "conv3d_300", "trainable": true, "dtype": "float32", "filters": 128, "kernel_size": [1, 3, 3], "strides": [1, 1, 1], "padding": "same", "data_format": "channels_last", "dilation_rate": [1, 1, 1], "activation": "linear", "use_bias": false, "kernel_initializer": {"class_name": "VarianceScaling", "config": {"scale": 1.0, "mode": "fan_avg", "distribution": "uniform", "seed": null}}, "bias_initializer": {"class_name": "Zeros", "config": {}}, "kernel_regularizer": null, "bias_regularizer": null, "activity_regularizer": null, "kernel_constraint": null, "bias_constraint": null}}, {"class_name": "BatchNormalization", "config": {"name": "batch_normalization_288", "trainable": true, "dtype": "float32", "axis": -1, "momentum": 0.99, "epsilon": 0.001, "center": true, "scale": true, "beta_initializer": {"class_name": "Zeros", "config": {}}, "gamma_initializer": {"class_name": "Ones", "config": {}}, "moving_mean_initializer": {"class_name": "Zeros", "config": {}}, "moving_variance_initializer": {"class_name": "Ones", "config": {}}, "beta_regularizer": null, "gamma_regularizer": null, "beta_constraint": null, "gamma_constraint": null}}, {"class_name": "ReLU", "config": {"name": "re_lu_266", "trainable": true, "dtype": "float32", "max_value": null, "negative_slope": 0.0, "threshold": 0.0}}], "build_input_shape": [null, 2, 28, 28, 128]}, "inbound_nodes": [[["sequential_201", 1, 0, {}]]]}, {"name": "conv3d_246", "class_name": "Conv3D", "config": {"name": "conv3d_246", "trainable": true, "dtype": "float32", "filters": 64, "kernel_size": [1, 1, 1], "strides": [1, 1, 1], "padding": "valid", "data_format": "channels_last", "dilation_rate": [1, 1, 1], "activation": "linear", "use_bias": false, "kernel_initializer": {"class_name": "VarianceScaling", "config": {"scale": 1.0, "mode": "fan_avg", "distribution": "uniform", "seed": null}}, "bias_initializer": {"class_name": "Zeros", "config": {}}, "kernel_regularizer": null, "bias_regularizer": null, "activity_regularizer": null, "kernel_constraint": null, "bias_constraint": null}, "inbound_nodes": [[["sequential_165", 1, 0, {}]]]}, {"name": "conv3d_301", "class_name": "Conv3D", "config": {"name": "conv3d_301", "trainable": true, "dtype": "float32", "filters": 512, "kernel_size": [1, 1, 1], "strides": [1, 1, 1], "padding": "valid", "data_format": "channels_last", "dilation_rate": [1, 1, 1], "activation": "linear", "use_bias": false, "kernel_initializer": {"class_name": "VarianceScaling", "config": {"scale": 1.0, "mode": "fan_avg", "distribution": "uniform", "seed": null}}, "bias_initializer": {"class_name": "Zeros", "config": {}}, "kernel_regularizer": null, "bias_regularizer": null, "activity_regularizer": null, "kernel_constraint": null, "bias_constraint": null}, "inbound_nodes": [[["sequential_202", 1, 0, {}]]]}, {"name": "batch_normalization_236", "class_name": "BatchNormalization", "config": {"name": "batch_normalization_236", "trainable": true, "dtype": "float32", "axis": -1, "momentum": 0.99, "epsilon": 0.001, "center": true, "scale": true, "beta_initializer": {"class_name": "Zeros", "config": {}}, "gamma_initializer": {"class_name": "Ones", "config": {}}, "moving_mean_initializer": {"class_name": "Zeros", "config": {}}, "moving_variance_initializer": {"class_name": "Ones", "config": {}}, "beta_regularizer": null, "gamma_regularizer": null, "beta_constraint": null, "gamma_constraint": null}, "inbound_nodes": [[["conv3d_246", 0, 0, {}]]]}, {"name": "batch_normalization_289", "class_name": "BatchNormalization", "config": {"name": "batch_normalization_289", "trainable": true, "dtype": "float32", "axis": -1, "momentum": 0.99, "epsilon": 0.001, "center": true, "scale": true, "beta_initializer": {"class_name": "Zeros", "config": {}}, "gamma_initializer": {"class_name": "Ones", "config": {}}, "moving_mean_initializer": {"class_name": "Zeros", "config": {}}, "moving_variance_initializer": {"class_name": "Ones", "config": {}}, "beta_regularizer": null, "gamma_regularizer": null, "beta_constraint": null, "gamma_constraint": null}, "inbound_nodes": [[["conv3d_301", 0, 0, {}]]]}, {"name": "add_71", "class_name": "Add", "config": {"name": "add_71", "trainable": true, "dtype": "float32"}, "inbound_nodes": [[["batch_normalization_236", 0, 0, {}], ["re_lu_215", 0, 0, {}]]]}, {"name": "add_87", "class_name": "Add", "config": {"name": "add_87", "trainable": true, "dtype": "float32"}, "inbound_nodes": [[["batch_normalization_289", 0, 0, {}], ["re_lu_264", 0, 0, {}]]]}, {"name": "re_lu_218", "class_name": "ReLU", "config": {"name": "re_lu_218", "trainable": true, "dtype": "float32", "max_value": null, "negative_slope": 0.0, "threshold": 0.0}, "inbound_nodes": [[["add_71", 0, 0, {}]]]}, {"name": "re_lu_267", "class_name": "ReLU", "config": {"name": "re_lu_267", "trainable": true, "dtype": "float32", "max_value": null, "negative_slope": 0.0, "threshold": 0.0}, "inbound_nodes": [[["add_87", 0, 0, {}]]]}, {"name": "conv3d_247", "class_name": "Conv3D", "config": {"name": "conv3d_247", "trainable": true, "dtype": "float32", "filters": 128, "kernel_size": [5, 1, 1], "strides": [8, 1, 1], "padding": "same", "data_format": "channels_last", "dilation_rate": [1, 1, 1], "activation": "linear", "use_bias": false, "kernel_initializer": {"class_name": "VarianceScaling", "config": {"scale": 1.0, "mode": "fan_avg", "distribution": "uniform", "seed": null}}, "bias_initializer": {"class_name": "Zeros", "config": {}}, "kernel_regularizer": null, "bias_regularizer": null, "activity_regularizer": null, "kernel_constraint": null, "bias_constraint": null}, "inbound_nodes": [[["re_lu_218", 0, 0, {}]]]}, {"name": "concatenate_13", "class_name": "Concatenate", "config": {"name": "concatenate_13", "trainable": true, "dtype": "float32", "axis": -1}, "inbound_nodes": [[["re_lu_267", 0, 0, {}], ["conv3d_247", 0, 0, {}]]]}, {"name": "sequential_167", "class_name": "Sequential", "config": {"name": "sequential_167", "layers": [{"class_name": "Conv3D", "config": {"name": "conv3d_249", "trainable": true, "dtype": "float32", "filters": 32, "kernel_size": [3, 1, 1], "strides": [1, 1, 1], "padding": "same", "data_format": "channels_last", "dilation_rate": [1, 1, 1], "activation": "linear", "use_bias": false, "kernel_initializer": {"class_name": "VarianceScaling", "config": {"scale": 1.0, "mode": "fan_avg", "distribution": "uniform", "seed": null}}, "bias_initializer": {"class_name": "Zeros", "config": {}}, "kernel_regularizer": null, "bias_regularizer": null, "activity_regularizer": null, "kernel_constraint": null, "bias_constraint": null}}, {"class_name": "BatchNormalization", "config": {"name": "batch_normalization_238", "trainable": true, "dtype": "float32", "axis": -1, "momentum": 0.99, "epsilon": 0.001, "center": true, "scale": true, "beta_initializer": {"class_name": "Zeros", "config": {}}, "gamma_initializer": {"class_name": "Ones", "config": {}}, "moving_mean_initializer": {"class_name": "Zeros", "config": {}}, "moving_variance_initializer": {"class_name": "Ones", "config": {}}, "beta_regularizer": null, "gamma_regularizer": null, "beta_constraint": null, "gamma_constraint": null}}, {"class_name": "ReLU", "config": {"name": "re_lu_219", "trainable": true, "dtype": "float32", "max_value": null, "negative_slope": 0.0, "threshold": 0.0}}], "build_input_shape": [null, 13, 28, 28, 64]}, "inbound_nodes": [[["re_lu_218", 0, 0, {}]]]}, {"name": "sequential_204", "class_name": "Sequential", "config": {"name": "sequential_204", "layers": [{"class_name": "Conv3D", "config": {"name": "conv3d_303", "trainable": true, "dtype": "float32", "filters": 256, "kernel_size": [1, 1, 1], "strides": [1, 1, 1], "padding": "same", "data_format": "channels_last", "dilation_rate": [1, 1, 1], "activation": "linear", "use_bias": false, "kernel_initializer": {"class_name": "VarianceScaling", "config": {"scale": 1.0, "mode": "fan_avg", "distribution": "uniform", "seed": null}}, "bias_initializer": {"class_name": "Zeros", "config": {}}, "kernel_regularizer": null, "bias_regularizer": null, "activity_regularizer": null, "kernel_constraint": null, "bias_constraint": null}}, {"class_name": "BatchNormalization", "config": {"name": "batch_normalization_291", "trainable": true, "dtype": "float32", "axis": -1, "momentum": 0.99, "epsilon": 0.001, "center": true, "scale": true, "beta_initializer": {"class_name": "Zeros", "config": {}}, "gamma_initializer": {"class_name": "Ones", "config": {}}, "moving_mean_initializer": {"class_name": "Zeros", "config": {}}, "moving_variance_initializer": {"class_name": "Ones", "config": {}}, "beta_regularizer": null, "gamma_regularizer": null, "beta_constraint": null, "gamma_constraint": null}}, {"class_name": "ReLU", "config": {"name": "re_lu_268", "trainable": true, "dtype": "float32", "max_value": null, "negative_slope": 0.0, "threshold": 0.0}}], "build_input_shape": [null, 2, 28, 28, 640]}, "inbound_nodes": [[["concatenate_13", 0, 0, {}]]]}, {"name": "sequential_168", "class_name": "Sequential", "config": {"name": "sequential_168", "layers": [{"class_name": "Conv3D", "config": {"name": "conv3d_250", "trainable": true, "dtype": "float32", "filters": 32, "kernel_size": [1, 3, 3], "strides": [1, 2, 2], "padding": "same", "data_format": "channels_last", "dilation_rate": [1, 1, 1], "activation": "linear", "use_bias": false, "kernel_initializer": {"class_name": "VarianceScaling", "config": {"scale": 1.0, "mode": "fan_avg", "distribution": "uniform", "seed": null}}, "bias_initializer": {"class_name": "Zeros", "config": {}}, "kernel_regularizer": null, "bias_regularizer": null, "activity_regularizer": null, "kernel_constraint": null, "bias_constraint": null}}, {"class_name": "BatchNormalization", "config": {"name": "batch_normalization_239", "trainable": true, "dtype": "float32", "axis": -1, "momentum": 0.99, "epsilon": 0.001, "center": true, "scale": true, "beta_initializer": {"class_name": "Zeros", "config": {}}, "gamma_initializer": {"class_name": "Ones", "config": {}}, "moving_mean_initializer": {"class_name": "Zeros", "config": {}}, "moving_variance_initializer": {"class_name": "Ones", "config": {}}, "beta_regularizer": null, "gamma_regularizer": null, "beta_constraint": null, "gamma_constraint": null}}, {"class_name": "ReLU", "config": {"name": "re_lu_220", "trainable": true, "dtype": "float32", "max_value": null, "negative_slope": 0.0, "threshold": 0.0}}], "build_input_shape": [null, 13, 28, 28, 32]}, "inbound_nodes": [[["sequential_167", 1, 0, {}]]]}, {"name": "sequential_205", "class_name": "Sequential", "config": {"name": "sequential_205", "layers": [{"class_name": "Conv3D", "config": {"name": "conv3d_304", "trainable": true, "dtype": "float32", "filters": 256, "kernel_size": [1, 3, 3], "strides": [1, 2, 2], "padding": "same", "data_format": "channels_last", "dilation_rate": [1, 1, 1], "activation": "linear", "use_bias": false, "kernel_initializer": {"class_name": "VarianceScaling", "config": {"scale": 1.0, "mode": "fan_avg", "distribution": "uniform", "seed": null}}, "bias_initializer": {"class_name": "Zeros", "config": {}}, "kernel_regularizer": null, "bias_regularizer": null, "activity_regularizer": null, "kernel_constraint": null, "bias_constraint": null}}, {"class_name": "BatchNormalization", "config": {"name": "batch_normalization_292", "trainable": true, "dtype": "float32", "axis": -1, "momentum": 0.99, "epsilon": 0.001, "center": true, "scale": true, "beta_initializer": {"class_name": "Zeros", "config": {}}, "gamma_initializer": {"class_name": "Ones", "config": {}}, "moving_mean_initializer": {"class_name": "Zeros", "config": {}}, "moving_variance_initializer": {"class_name": "Ones", "config": {}}, "beta_regularizer": null, "gamma_regularizer": null, "beta_constraint": null, "gamma_constraint": null}}, {"class_name": "ReLU", "config": {"name": "re_lu_269", "trainable": true, "dtype": "float32", "max_value": null, "negative_slope": 0.0, "threshold": 0.0}}], "build_input_shape": [null, 2, 28, 28, 256]}, "inbound_nodes": [[["sequential_204", 1, 0, {}]]]}, {"name": "conv3d_251", "class_name": "Conv3D", "config": {"name": "conv3d_251", "trainable": true, "dtype": "float32", "filters": 128, "kernel_size": [1, 1, 1], "strides": [1, 1, 1], "padding": "valid", "data_format": "channels_last", "dilation_rate": [1, 1, 1], "activation": "linear", "use_bias": false, "kernel_initializer": {"class_name": "VarianceScaling", "config": {"scale": 1.0, "mode": "fan_avg", "distribution": "uniform", "seed": null}}, "bias_initializer": {"class_name": "Zeros", "config": {}}, "kernel_regularizer": null, "bias_regularizer": null, "activity_regularizer": null, "kernel_constraint": null, "bias_constraint": null}, "inbound_nodes": [[["sequential_168", 1, 0, {}]]]}, {"name": "conv3d_305", "class_name": "Conv3D", "config": {"name": "conv3d_305", "trainable": true, "dtype": "float32", "filters": 1024, "kernel_size": [1, 1, 1], "strides": [1, 1, 1], "padding": "valid", "data_format": "channels_last", "dilation_rate": [1, 1, 1], "activation": "linear", "use_bias": false, "kernel_initializer": {"class_name": "VarianceScaling", "config": {"scale": 1.0, "mode": "fan_avg", "distribution": "uniform", "seed": null}}, "bias_initializer": {"class_name": "Zeros", "config": {}}, "kernel_regularizer": null, "bias_regularizer": null, "activity_regularizer": null, "kernel_constraint": null, "bias_constraint": null}, "inbound_nodes": [[["sequential_205", 1, 0, {}]]]}, {"name": "batch_normalization_240", "class_name": "BatchNormalization", "config": {"name": "batch_normalization_240", "trainable": true, "dtype": "float32", "axis": -1, "momentum": 0.99, "epsilon": 0.001, "center": true, "scale": true, "beta_initializer": {"class_name": "Zeros", "config": {}}, "gamma_initializer": {"class_name": "Ones", "config": {}}, "moving_mean_initializer": {"class_name": "Zeros", "config": {}}, "moving_variance_initializer": {"class_name": "Ones", "config": {}}, "beta_regularizer": null, "gamma_regularizer": null, "beta_constraint": null, "gamma_constraint": null}, "inbound_nodes": [[["conv3d_251", 0, 0, {}]]]}, {"name": "sequential_166", "class_name": "Sequential", "config": {"name": "sequential_166", "layers": [{"class_name": "Conv3D", "config": {"name": "conv3d_248", "trainable": true, "dtype": "float32", "filters": 128, "kernel_size": [1, 1, 1], "strides": [1, 2, 2], "padding": "valid", "data_format": "channels_last", "dilation_rate": [1, 1, 1], "activation": "linear", "use_bias": false, "kernel_initializer": {"class_name": "VarianceScaling", "config": {"scale": 1.0, "mode": "fan_avg", "distribution": "uniform", "seed": null}}, "bias_initializer": {"class_name": "Zeros", "config": {}}, "kernel_regularizer": null, "bias_regularizer": null, "activity_regularizer": null, "kernel_constraint": null, "bias_constraint": null}}, {"class_name": "BatchNormalization", "config": {"name": "batch_normalization_237", "trainable": true, "dtype": "float32", "axis": -1, "momentum": 0.99, "epsilon": 0.001, "center": true, "scale": true, "beta_initializer": {"class_name": "Zeros", "config": {}}, "gamma_initializer": {"class_name": "Ones", "config": {}}, "moving_mean_initializer": {"class_name": "Zeros", "config": {}}, "moving_variance_initializer": {"class_name": "Ones", "config": {}}, "beta_regularizer": null, "gamma_regularizer": null, "beta_constraint": null, "gamma_constraint": null}}], "build_input_shape": [null, 13, 28, 28, 64]}, "inbound_nodes": [[["re_lu_218", 0, 0, {}]]]}, {"name": "batch_normalization_293", "class_name": "BatchNormalization", "config": {"name": "batch_normalization_293", "trainable": true, "dtype": "float32", "axis": -1, "momentum": 0.99, "epsilon": 0.001, "center": true, "scale": true, "beta_initializer": {"class_name": "Zeros", "config": {}}, "gamma_initializer": {"class_name": "Ones", "config": {}}, "moving_mean_initializer": {"class_name": "Zeros", "config": {}}, "moving_variance_initializer": {"class_name": "Ones", "config": {}}, "beta_regularizer": null, "gamma_regularizer": null, "beta_constraint": null, "gamma_constraint": null}, "inbound_nodes": [[["conv3d_305", 0, 0, {}]]]}, {"name": "sequential_203", "class_name": "Sequential", "config": {"name": "sequential_203", "layers": [{"class_name": "Conv3D", "config": {"name": "conv3d_302", "trainable": true, "dtype": "float32", "filters": 1024, "kernel_size": [1, 1, 1], "strides": [1, 2, 2], "padding": "valid", "data_format": "channels_last", "dilation_rate": [1, 1, 1], "activation": "linear", "use_bias": false, "kernel_initializer": {"class_name": "VarianceScaling", "config": {"scale": 1.0, "mode": "fan_avg", "distribution": "uniform", "seed": null}}, "bias_initializer": {"class_name": "Zeros", "config": {}}, "kernel_regularizer": null, "bias_regularizer": null, "activity_regularizer": null, "kernel_constraint": null, "bias_constraint": null}}, {"class_name": "BatchNormalization", "config": {"name": "batch_normalization_290", "trainable": true, "dtype": "float32", "axis": -1, "momentum": 0.99, "epsilon": 0.001, "center": true, "scale": true, "beta_initializer": {"class_name": "Zeros", "config": {}}, "gamma_initializer": {"class_name": "Ones", "config": {}}, "moving_mean_initializer": {"class_name": "Zeros", "config": {}}, "moving_variance_initializer": {"class_name": "Ones", "config": {}}, "beta_regularizer": null, "gamma_regularizer": null, "beta_constraint": null, "gamma_constraint": null}}], "build_input_shape": [null, 2, 28, 28, 640]}, "inbound_nodes": [[["concatenate_13", 0, 0, {}]]]}, {"name": "add_72", "class_name": "Add", "config": {"name": "add_72", "trainable": true, "dtype": "float32"}, "inbound_nodes": [[["batch_normalization_240", 0, 0, {}], ["sequential_166", 1, 0, {}]]]}, {"name": "add_88", "class_name": "Add", "config": {"name": "add_88", "trainable": true, "dtype": "float32"}, "inbound_nodes": [[["batch_normalization_293", 0, 0, {}], ["sequential_203", 1, 0, {}]]]}, {"name": "re_lu_221", "class_name": "ReLU", "config": {"name": "re_lu_221", "trainable": true, "dtype": "float32", "max_value": null, "negative_slope": 0.0, "threshold": 0.0}, "inbound_nodes": [[["add_72", 0, 0, {}]]]}, {"name": "re_lu_270", "class_name": "ReLU", "config": {"name": "re_lu_270", "trainable": true, "dtype": "float32", "max_value": null, "negative_slope": 0.0, "threshold": 0.0}, "inbound_nodes": [[["add_88", 0, 0, {}]]]}, {"name": "sequential_169", "class_name": "Sequential", "config": {"name": "sequential_169", "layers": [{"class_name": "Conv3D", "config": {"name": "conv3d_252", "trainable": true, "dtype": "float32", "filters": 32, "kernel_size": [3, 1, 1], "strides": [1, 1, 1], "padding": "same", "data_format": "channels_last", "dilation_rate": [1, 1, 1], "activation": "linear", "use_bias": false, "kernel_initializer": {"class_name": "VarianceScaling", "config": {"scale": 1.0, "mode": "fan_avg", "distribution": "uniform", "seed": null}}, "bias_initializer": {"class_name": "Zeros", "config": {}}, "kernel_regularizer": null, "bias_regularizer": null, "activity_regularizer": null, "kernel_constraint": null, "bias_constraint": null}}, {"class_name": "BatchNormalization", "config": {"name": "batch_normalization_241", "trainable": true, "dtype": "float32", "axis": -1, "momentum": 0.99, "epsilon": 0.001, "center": true, "scale": true, "beta_initializer": {"class_name": "Zeros", "config": {}}, "gamma_initializer": {"class_name": "Ones", "config": {}}, "moving_mean_initializer": {"class_name": "Zeros", "config": {}}, "moving_variance_initializer": {"class_name": "Ones", "config": {}}, "beta_regularizer": null, "gamma_regularizer": null, "beta_constraint": null, "gamma_constraint": null}}, {"class_name": "ReLU", "config": {"name": "re_lu_222", "trainable": true, "dtype": "float32", "max_value": null, "negative_slope": 0.0, "threshold": 0.0}}], "build_input_shape": [null, 13, 14, 14, 128]}, "inbound_nodes": [[["re_lu_221", 0, 0, {}]]]}, {"name": "sequential_206", "class_name": "Sequential", "config": {"name": "sequential_206", "layers": [{"class_name": "Conv3D", "config": {"name": "conv3d_306", "trainable": true, "dtype": "float32", "filters": 256, "kernel_size": [1, 1, 1], "strides": [1, 1, 1], "padding": "same", "data_format": "channels_last", "dilation_rate": [1, 1, 1], "activation": "linear", "use_bias": false, "kernel_initializer": {"class_name": "VarianceScaling", "config": {"scale": 1.0, "mode": "fan_avg", "distribution": "uniform", "seed": null}}, "bias_initializer": {"class_name": "Zeros", "config": {}}, "kernel_regularizer": null, "bias_regularizer": null, "activity_regularizer": null, "kernel_constraint": null, "bias_constraint": null}}, {"class_name": "BatchNormalization", "config": {"name": "batch_normalization_294", "trainable": true, "dtype": "float32", "axis": -1, "momentum": 0.99, "epsilon": 0.001, "center": true, "scale": true, "beta_initializer": {"class_name": "Zeros", "config": {}}, "gamma_initializer": {"class_name": "Ones", "config": {}}, "moving_mean_initializer": {"class_name": "Zeros", "config": {}}, "moving_variance_initializer": {"class_name": "Ones", "config": {}}, "beta_regularizer": null, "gamma_regularizer": null, "beta_constraint": null, "gamma_constraint": null}}, {"class_name": "ReLU", "config": {"name": "re_lu_271", "trainable": true, "dtype": "float32", "max_value": null, "negative_slope": 0.0, "threshold": 0.0}}], "build_input_shape": [null, 2, 14, 14, 1024]}, "inbound_nodes": [[["re_lu_270", 0, 0, {}]]]}, {"name": "sequential_170", "class_name": "Sequential", "config": {"name": "sequential_170", "layers": [{"class_name": "Conv3D", "config": {"name": "conv3d_253", "trainable": true, "dtype": "float32", "filters": 32, "kernel_size": [1, 3, 3], "strides": [1, 1, 1], "padding": "same", "data_format": "channels_last", "dilation_rate": [1, 1, 1], "activation": "linear", "use_bias": false, "kernel_initializer": {"class_name": "VarianceScaling", "config": {"scale": 1.0, "mode": "fan_avg", "distribution": "uniform", "seed": null}}, "bias_initializer": {"class_name": "Zeros", "config": {}}, "kernel_regularizer": null, "bias_regularizer": null, "activity_regularizer": null, "kernel_constraint": null, "bias_constraint": null}}, {"class_name": "BatchNormalization", "config": {"name": "batch_normalization_242", "trainable": true, "dtype": "float32", "axis": -1, "momentum": 0.99, "epsilon": 0.001, "center": true, "scale": true, "beta_initializer": {"class_name": "Zeros", "config": {}}, "gamma_initializer": {"class_name": "Ones", "config": {}}, "moving_mean_initializer": {"class_name": "Zeros", "config": {}}, "moving_variance_initializer": {"class_name": "Ones", "config": {}}, "beta_regularizer": null, "gamma_regularizer": null, "beta_constraint": null, "gamma_constraint": null}}, {"class_name": "ReLU", "config": {"name": "re_lu_223", "trainable": true, "dtype": "float32", "max_value": null, "negative_slope": 0.0, "threshold": 0.0}}], "build_input_shape": [null, 13, 14, 14, 32]}, "inbound_nodes": [[["sequential_169", 1, 0, {}]]]}, {"name": "sequential_207", "class_name": "Sequential", "config": {"name": "sequential_207", "layers": [{"class_name": "Conv3D", "config": {"name": "conv3d_307", "trainable": true, "dtype": "float32", "filters": 256, "kernel_size": [1, 3, 3], "strides": [1, 1, 1], "padding": "same", "data_format": "channels_last", "dilation_rate": [1, 1, 1], "activation": "linear", "use_bias": false, "kernel_initializer": {"class_name": "VarianceScaling", "config": {"scale": 1.0, "mode": "fan_avg", "distribution": "uniform", "seed": null}}, "bias_initializer": {"class_name": "Zeros", "config": {}}, "kernel_regularizer": null, "bias_regularizer": null, "activity_regularizer": null, "kernel_constraint": null, "bias_constraint": null}}, {"class_name": "BatchNormalization", "config": {"name": "batch_normalization_295", "trainable": true, "dtype": "float32", "axis": -1, "momentum": 0.99, "epsilon": 0.001, "center": true, "scale": true, "beta_initializer": {"class_name": "Zeros", "config": {}}, "gamma_initializer": {"class_name": "Ones", "config": {}}, "moving_mean_initializer": {"class_name": "Zeros", "config": {}}, "moving_variance_initializer": {"class_name": "Ones", "config": {}}, "beta_regularizer": null, "gamma_regularizer": null, "beta_constraint": null, "gamma_constraint": null}}, {"class_name": "ReLU", "config": {"name": "re_lu_272", "trainable": true, "dtype": "float32", "max_value": null, "negative_slope": 0.0, "threshold": 0.0}}], "build_input_shape": [null, 2, 14, 14, 256]}, "inbound_nodes": [[["sequential_206", 1, 0, {}]]]}, {"name": "conv3d_254", "class_name": "Conv3D", "config": {"name": "conv3d_254", "trainable": true, "dtype": "float32", "filters": 128, "kernel_size": [1, 1, 1], "strides": [1, 1, 1], "padding": "valid", "data_format": "channels_last", "dilation_rate": [1, 1, 1], "activation": "linear", "use_bias": false, "kernel_initializer": {"class_name": "VarianceScaling", "config": {"scale": 1.0, "mode": "fan_avg", "distribution": "uniform", "seed": null}}, "bias_initializer": {"class_name": "Zeros", "config": {}}, "kernel_regularizer": null, "bias_regularizer": null, "activity_regularizer": null, "kernel_constraint": null, "bias_constraint": null}, "inbound_nodes": [[["sequential_170", 1, 0, {}]]]}, {"name": "conv3d_308", "class_name": "Conv3D", "config": {"name": "conv3d_308", "trainable": true, "dtype": "float32", "filters": 1024, "kernel_size": [1, 1, 1], "strides": [1, 1, 1], "padding": "valid", "data_format": "channels_last", "dilation_rate": [1, 1, 1], "activation": "linear", "use_bias": false, "kernel_initializer": {"class_name": "VarianceScaling", "config": {"scale": 1.0, "mode": "fan_avg", "distribution": "uniform", "seed": null}}, "bias_initializer": {"class_name": "Zeros", "config": {}}, "kernel_regularizer": null, "bias_regularizer": null, "activity_regularizer": null, "kernel_constraint": null, "bias_constraint": null}, "inbound_nodes": [[["sequential_207", 1, 0, {}]]]}, {"name": "batch_normalization_243", "class_name": "BatchNormalization", "config": {"name": "batch_normalization_243", "trainable": true, "dtype": "float32", "axis": -1, "momentum": 0.99, "epsilon": 0.001, "center": true, "scale": true, "beta_initializer": {"class_name": "Zeros", "config": {}}, "gamma_initializer": {"class_name": "Ones", "config": {}}, "moving_mean_initializer": {"class_name": "Zeros", "config": {}}, "moving_variance_initializer": {"class_name": "Ones", "config": {}}, "beta_regularizer": null, "gamma_regularizer": null, "beta_constraint": null, "gamma_constraint": null}, "inbound_nodes": [[["conv3d_254", 0, 0, {}]]]}, {"name": "batch_normalization_296", "class_name": "BatchNormalization", "config": {"name": "batch_normalization_296", "trainable": true, "dtype": "float32", "axis": -1, "momentum": 0.99, "epsilon": 0.001, "center": true, "scale": true, "beta_initializer": {"class_name": "Zeros", "config": {}}, "gamma_initializer": {"class_name": "Ones", "config": {}}, "moving_mean_initializer": {"class_name": "Zeros", "config": {}}, "moving_variance_initializer": {"class_name": "Ones", "config": {}}, "beta_regularizer": null, "gamma_regularizer": null, "beta_constraint": null, "gamma_constraint": null}, "inbound_nodes": [[["conv3d_308", 0, 0, {}]]]}, {"name": "add_73", "class_name": "Add", "config": {"name": "add_73", "trainable": true, "dtype": "float32"}, "inbound_nodes": [[["batch_normalization_243", 0, 0, {}], ["re_lu_221", 0, 0, {}]]]}, {"name": "add_89", "class_name": "Add", "config": {"name": "add_89", "trainable": true, "dtype": "float32"}, "inbound_nodes": [[["batch_normalization_296", 0, 0, {}], ["re_lu_270", 0, 0, {}]]]}, {"name": "re_lu_224", "class_name": "ReLU", "config": {"name": "re_lu_224", "trainable": true, "dtype": "float32", "max_value": null, "negative_slope": 0.0, "threshold": 0.0}, "inbound_nodes": [[["add_73", 0, 0, {}]]]}, {"name": "re_lu_273", "class_name": "ReLU", "config": {"name": "re_lu_273", "trainable": true, "dtype": "float32", "max_value": null, "negative_slope": 0.0, "threshold": 0.0}, "inbound_nodes": [[["add_89", 0, 0, {}]]]}, {"name": "sequential_171", "class_name": "Sequential", "config": {"name": "sequential_171", "layers": [{"class_name": "Conv3D", "config": {"name": "conv3d_255", "trainable": true, "dtype": "float32", "filters": 32, "kernel_size": [3, 1, 1], "strides": [1, 1, 1], "padding": "same", "data_format": "channels_last", "dilation_rate": [1, 1, 1], "activation": "linear", "use_bias": false, "kernel_initializer": {"class_name": "VarianceScaling", "config": {"scale": 1.0, "mode": "fan_avg", "distribution": "uniform", "seed": null}}, "bias_initializer": {"class_name": "Zeros", "config": {}}, "kernel_regularizer": null, "bias_regularizer": null, "activity_regularizer": null, "kernel_constraint": null, "bias_constraint": null}}, {"class_name": "BatchNormalization", "config": {"name": "batch_normalization_244", "trainable": true, "dtype": "float32", "axis": -1, "momentum": 0.99, "epsilon": 0.001, "center": true, "scale": true, "beta_initializer": {"class_name": "Zeros", "config": {}}, "gamma_initializer": {"class_name": "Ones", "config": {}}, "moving_mean_initializer": {"class_name": "Zeros", "config": {}}, "moving_variance_initializer": {"class_name": "Ones", "config": {}}, "beta_regularizer": null, "gamma_regularizer": null, "beta_constraint": null, "gamma_constraint": null}}, {"class_name": "ReLU", "config": {"name": "re_lu_225", "trainable": true, "dtype": "float32", "max_value": null, "negative_slope": 0.0, "threshold": 0.0}}], "build_input_shape": [null, 13, 14, 14, 128]}, "inbound_nodes": [[["re_lu_224", 0, 0, {}]]]}, {"name": "sequential_208", "class_name": "Sequential", "config": {"name": "sequential_208", "layers": [{"class_name": "Conv3D", "config": {"name": "conv3d_309", "trainable": true, "dtype": "float32", "filters": 256, "kernel_size": [1, 1, 1], "strides": [1, 1, 1], "padding": "same", "data_format": "channels_last", "dilation_rate": [1, 1, 1], "activation": "linear", "use_bias": false, "kernel_initializer": {"class_name": "VarianceScaling", "config": {"scale": 1.0, "mode": "fan_avg", "distribution": "uniform", "seed": null}}, "bias_initializer": {"class_name": "Zeros", "config": {}}, "kernel_regularizer": null, "bias_regularizer": null, "activity_regularizer": null, "kernel_constraint": null, "bias_constraint": null}}, {"class_name": "BatchNormalization", "config": {"name": "batch_normalization_297", "trainable": true, "dtype": "float32", "axis": -1, "momentum": 0.99, "epsilon": 0.001, "center": true, "scale": true, "beta_initializer": {"class_name": "Zeros", "config": {}}, "gamma_initializer": {"class_name": "Ones", "config": {}}, "moving_mean_initializer": {"class_name": "Zeros", "config": {}}, "moving_variance_initializer": {"class_name": "Ones", "config": {}}, "beta_regularizer": null, "gamma_regularizer": null, "beta_constraint": null, "gamma_constraint": null}}, {"class_name": "ReLU", "config": {"name": "re_lu_274", "trainable": true, "dtype": "float32", "max_value": null, "negative_slope": 0.0, "threshold": 0.0}}], "build_input_shape": [null, 2, 14, 14, 1024]}, "inbound_nodes": [[["re_lu_273", 0, 0, {}]]]}, {"name": "sequential_172", "class_name": "Sequential", "config": {"name": "sequential_172", "layers": [{"class_name": "Conv3D", "config": {"name": "conv3d_256", "trainable": true, "dtype": "float32", "filters": 32, "kernel_size": [1, 3, 3], "strides": [1, 1, 1], "padding": "same", "data_format": "channels_last", "dilation_rate": [1, 1, 1], "activation": "linear", "use_bias": false, "kernel_initializer": {"class_name": "VarianceScaling", "config": {"scale": 1.0, "mode": "fan_avg", "distribution": "uniform", "seed": null}}, "bias_initializer": {"class_name": "Zeros", "config": {}}, "kernel_regularizer": null, "bias_regularizer": null, "activity_regularizer": null, "kernel_constraint": null, "bias_constraint": null}}, {"class_name": "BatchNormalization", "config": {"name": "batch_normalization_245", "trainable": true, "dtype": "float32", "axis": -1, "momentum": 0.99, "epsilon": 0.001, "center": true, "scale": true, "beta_initializer": {"class_name": "Zeros", "config": {}}, "gamma_initializer": {"class_name": "Ones", "config": {}}, "moving_mean_initializer": {"class_name": "Zeros", "config": {}}, "moving_variance_initializer": {"class_name": "Ones", "config": {}}, "beta_regularizer": null, "gamma_regularizer": null, "beta_constraint": null, "gamma_constraint": null}}, {"class_name": "ReLU", "config": {"name": "re_lu_226", "trainable": true, "dtype": "float32", "max_value": null, "negative_slope": 0.0, "threshold": 0.0}}], "build_input_shape": [null, 13, 14, 14, 32]}, "inbound_nodes": [[["sequential_171", 1, 0, {}]]]}, {"name": "sequential_209", "class_name": "Sequential", "config": {"name": "sequential_209", "layers": [{"class_name": "Conv3D", "config": {"name": "conv3d_310", "trainable": true, "dtype": "float32", "filters": 256, "kernel_size": [1, 3, 3], "strides": [1, 1, 1], "padding": "same", "data_format": "channels_last", "dilation_rate": [1, 1, 1], "activation": "linear", "use_bias": false, "kernel_initializer": {"class_name": "VarianceScaling", "config": {"scale": 1.0, "mode": "fan_avg", "distribution": "uniform", "seed": null}}, "bias_initializer": {"class_name": "Zeros", "config": {}}, "kernel_regularizer": null, "bias_regularizer": null, "activity_regularizer": null, "kernel_constraint": null, "bias_constraint": null}}, {"class_name": "BatchNormalization", "config": {"name": "batch_normalization_298", "trainable": true, "dtype": "float32", "axis": -1, "momentum": 0.99, "epsilon": 0.001, "center": true, "scale": true, "beta_initializer": {"class_name": "Zeros", "config": {}}, "gamma_initializer": {"class_name": "Ones", "config": {}}, "moving_mean_initializer": {"class_name": "Zeros", "config": {}}, "moving_variance_initializer": {"class_name": "Ones", "config": {}}, "beta_regularizer": null, "gamma_regularizer": null, "beta_constraint": null, "gamma_constraint": null}}, {"class_name": "ReLU", "config": {"name": "re_lu_275", "trainable": true, "dtype": "float32", "max_value": null, "negative_slope": 0.0, "threshold": 0.0}}], "build_input_shape": [null, 2, 14, 14, 256]}, "inbound_nodes": [[["sequential_208", 1, 0, {}]]]}, {"name": "conv3d_257", "class_name": "Conv3D", "config": {"name": "conv3d_257", "trainable": true, "dtype": "float32", "filters": 128, "kernel_size": [1, 1, 1], "strides": [1, 1, 1], "padding": "valid", "data_format": "channels_last", "dilation_rate": [1, 1, 1], "activation": "linear", "use_bias": false, "kernel_initializer": {"class_name": "VarianceScaling", "config": {"scale": 1.0, "mode": "fan_avg", "distribution": "uniform", "seed": null}}, "bias_initializer": {"class_name": "Zeros", "config": {}}, "kernel_regularizer": null, "bias_regularizer": null, "activity_regularizer": null, "kernel_constraint": null, "bias_constraint": null}, "inbound_nodes": [[["sequential_172", 1, 0, {}]]]}, {"name": "conv3d_311", "class_name": "Conv3D", "config": {"name": "conv3d_311", "trainable": true, "dtype": "float32", "filters": 1024, "kernel_size": [1, 1, 1], "strides": [1, 1, 1], "padding": "valid", "data_format": "channels_last", "dilation_rate": [1, 1, 1], "activation": "linear", "use_bias": false, "kernel_initializer": {"class_name": "VarianceScaling", "config": {"scale": 1.0, "mode": "fan_avg", "distribution": "uniform", "seed": null}}, "bias_initializer": {"class_name": "Zeros", "config": {}}, "kernel_regularizer": null, "bias_regularizer": null, "activity_regularizer": null, "kernel_constraint": null, "bias_constraint": null}, "inbound_nodes": [[["sequential_209", 1, 0, {}]]]}, {"name": "batch_normalization_246", "class_name": "BatchNormalization", "config": {"name": "batch_normalization_246", "trainable": true, "dtype": "float32", "axis": -1, "momentum": 0.99, "epsilon": 0.001, "center": true, "scale": true, "beta_initializer": {"class_name": "Zeros", "config": {}}, "gamma_initializer": {"class_name": "Ones", "config": {}}, "moving_mean_initializer": {"class_name": "Zeros", "config": {}}, "moving_variance_initializer": {"class_name": "Ones", "config": {}}, "beta_regularizer": null, "gamma_regularizer": null, "beta_constraint": null, "gamma_constraint": null}, "inbound_nodes": [[["conv3d_257", 0, 0, {}]]]}, {"name": "batch_normalization_299", "class_name": "BatchNormalization", "config": {"name": "batch_normalization_299", "trainable": true, "dtype": "float32", "axis": -1, "momentum": 0.99, "epsilon": 0.001, "center": true, "scale": true, "beta_initializer": {"class_name": "Zeros", "config": {}}, "gamma_initializer": {"class_name": "Ones", "config": {}}, "moving_mean_initializer": {"class_name": "Zeros", "config": {}}, "moving_variance_initializer": {"class_name": "Ones", "config": {}}, "beta_regularizer": null, "gamma_regularizer": null, "beta_constraint": null, "gamma_constraint": null}, "inbound_nodes": [[["conv3d_311", 0, 0, {}]]]}, {"name": "add_74", "class_name": "Add", "config": {"name": "add_74", "trainable": true, "dtype": "float32"}, "inbound_nodes": [[["batch_normalization_246", 0, 0, {}], ["re_lu_224", 0, 0, {}]]]}, {"name": "add_90", "class_name": "Add", "config": {"name": "add_90", "trainable": true, "dtype": "float32"}, "inbound_nodes": [[["batch_normalization_299", 0, 0, {}], ["re_lu_273", 0, 0, {}]]]}, {"name": "re_lu_227", "class_name": "ReLU", "config": {"name": "re_lu_227", "trainable": true, "dtype": "float32", "max_value": null, "negative_slope": 0.0, "threshold": 0.0}, "inbound_nodes": [[["add_74", 0, 0, {}]]]}, {"name": "re_lu_276", "class_name": "ReLU", "config": {"name": "re_lu_276", "trainable": true, "dtype": "float32", "max_value": null, "negative_slope": 0.0, "threshold": 0.0}, "inbound_nodes": [[["add_90", 0, 0, {}]]]}, {"name": "sequential_173", "class_name": "Sequential", "config": {"name": "sequential_173", "layers": [{"class_name": "Conv3D", "config": {"name": "conv3d_258", "trainable": true, "dtype": "float32", "filters": 32, "kernel_size": [3, 1, 1], "strides": [1, 1, 1], "padding": "same", "data_format": "channels_last", "dilation_rate": [1, 1, 1], "activation": "linear", "use_bias": false, "kernel_initializer": {"class_name": "VarianceScaling", "config": {"scale": 1.0, "mode": "fan_avg", "distribution": "uniform", "seed": null}}, "bias_initializer": {"class_name": "Zeros", "config": {}}, "kernel_regularizer": null, "bias_regularizer": null, "activity_regularizer": null, "kernel_constraint": null, "bias_constraint": null}}, {"class_name": "BatchNormalization", "config": {"name": "batch_normalization_247", "trainable": true, "dtype": "float32", "axis": -1, "momentum": 0.99, "epsilon": 0.001, "center": true, "scale": true, "beta_initializer": {"class_name": "Zeros", "config": {}}, "gamma_initializer": {"class_name": "Ones", "config": {}}, "moving_mean_initializer": {"class_name": "Zeros", "config": {}}, "moving_variance_initializer": {"class_name": "Ones", "config": {}}, "beta_regularizer": null, "gamma_regularizer": null, "beta_constraint": null, "gamma_constraint": null}}, {"class_name": "ReLU", "config": {"name": "re_lu_228", "trainable": true, "dtype": "float32", "max_value": null, "negative_slope": 0.0, "threshold": 0.0}}], "build_input_shape": [null, 13, 14, 14, 128]}, "inbound_nodes": [[["re_lu_227", 0, 0, {}]]]}, {"name": "sequential_210", "class_name": "Sequential", "config": {"name": "sequential_210", "layers": [{"class_name": "Conv3D", "config": {"name": "conv3d_312", "trainable": true, "dtype": "float32", "filters": 256, "kernel_size": [1, 1, 1], "strides": [1, 1, 1], "padding": "same", "data_format": "channels_last", "dilation_rate": [1, 1, 1], "activation": "linear", "use_bias": false, "kernel_initializer": {"class_name": "VarianceScaling", "config": {"scale": 1.0, "mode": "fan_avg", "distribution": "uniform", "seed": null}}, "bias_initializer": {"class_name": "Zeros", "config": {}}, "kernel_regularizer": null, "bias_regularizer": null, "activity_regularizer": null, "kernel_constraint": null, "bias_constraint": null}}, {"class_name": "BatchNormalization", "config": {"name": "batch_normalization_300", "trainable": true, "dtype": "float32", "axis": -1, "momentum": 0.99, "epsilon": 0.001, "center": true, "scale": true, "beta_initializer": {"class_name": "Zeros", "config": {}}, "gamma_initializer": {"class_name": "Ones", "config": {}}, "moving_mean_initializer": {"class_name": "Zeros", "config": {}}, "moving_variance_initializer": {"class_name": "Ones", "config": {}}, "beta_regularizer": null, "gamma_regularizer": null, "beta_constraint": null, "gamma_constraint": null}}, {"class_name": "ReLU", "config": {"name": "re_lu_277", "trainable": true, "dtype": "float32", "max_value": null, "negative_slope": 0.0, "threshold": 0.0}}], "build_input_shape": [null, 2, 14, 14, 1024]}, "inbound_nodes": [[["re_lu_276", 0, 0, {}]]]}, {"name": "sequential_174", "class_name": "Sequential", "config": {"name": "sequential_174", "layers": [{"class_name": "Conv3D", "config": {"name": "conv3d_259", "trainable": true, "dtype": "float32", "filters": 32, "kernel_size": [1, 3, 3], "strides": [1, 1, 1], "padding": "same", "data_format": "channels_last", "dilation_rate": [1, 1, 1], "activation": "linear", "use_bias": false, "kernel_initializer": {"class_name": "VarianceScaling", "config": {"scale": 1.0, "mode": "fan_avg", "distribution": "uniform", "seed": null}}, "bias_initializer": {"class_name": "Zeros", "config": {}}, "kernel_regularizer": null, "bias_regularizer": null, "activity_regularizer": null, "kernel_constraint": null, "bias_constraint": null}}, {"class_name": "BatchNormalization", "config": {"name": "batch_normalization_248", "trainable": true, "dtype": "float32", "axis": -1, "momentum": 0.99, "epsilon": 0.001, "center": true, "scale": true, "beta_initializer": {"class_name": "Zeros", "config": {}}, "gamma_initializer": {"class_name": "Ones", "config": {}}, "moving_mean_initializer": {"class_name": "Zeros", "config": {}}, "moving_variance_initializer": {"class_name": "Ones", "config": {}}, "beta_regularizer": null, "gamma_regularizer": null, "beta_constraint": null, "gamma_constraint": null}}, {"class_name": "ReLU", "config": {"name": "re_lu_229", "trainable": true, "dtype": "float32", "max_value": null, "negative_slope": 0.0, "threshold": 0.0}}], "build_input_shape": [null, 13, 14, 14, 32]}, "inbound_nodes": [[["sequential_173", 1, 0, {}]]]}, {"name": "sequential_211", "class_name": "Sequential", "config": {"name": "sequential_211", "layers": [{"class_name": "Conv3D", "config": {"name": "conv3d_313", "trainable": true, "dtype": "float32", "filters": 256, "kernel_size": [1, 3, 3], "strides": [1, 1, 1], "padding": "same", "data_format": "channels_last", "dilation_rate": [1, 1, 1], "activation": "linear", "use_bias": false, "kernel_initializer": {"class_name": "VarianceScaling", "config": {"scale": 1.0, "mode": "fan_avg", "distribution": "uniform", "seed": null}}, "bias_initializer": {"class_name": "Zeros", "config": {}}, "kernel_regularizer": null, "bias_regularizer": null, "activity_regularizer": null, "kernel_constraint": null, "bias_constraint": null}}, {"class_name": "BatchNormalization", "config": {"name": "batch_normalization_301", "trainable": true, "dtype": "float32", "axis": -1, "momentum": 0.99, "epsilon": 0.001, "center": true, "scale": true, "beta_initializer": {"class_name": "Zeros", "config": {}}, "gamma_initializer": {"class_name": "Ones", "config": {}}, "moving_mean_initializer": {"class_name": "Zeros", "config": {}}, "moving_variance_initializer": {"class_name": "Ones", "config": {}}, "beta_regularizer": null, "gamma_regularizer": null, "beta_constraint": null, "gamma_constraint": null}}, {"class_name": "ReLU", "config": {"name": "re_lu_278", "trainable": true, "dtype": "float32", "max_value": null, "negative_slope": 0.0, "threshold": 0.0}}], "build_input_shape": [null, 2, 14, 14, 256]}, "inbound_nodes": [[["sequential_210", 1, 0, {}]]]}, {"name": "conv3d_260", "class_name": "Conv3D", "config": {"name": "conv3d_260", "trainable": true, "dtype": "float32", "filters": 128, "kernel_size": [1, 1, 1], "strides": [1, 1, 1], "padding": "valid", "data_format": "channels_last", "dilation_rate": [1, 1, 1], "activation": "linear", "use_bias": false, "kernel_initializer": {"class_name": "VarianceScaling", "config": {"scale": 1.0, "mode": "fan_avg", "distribution": "uniform", "seed": null}}, "bias_initializer": {"class_name": "Zeros", "config": {}}, "kernel_regularizer": null, "bias_regularizer": null, "activity_regularizer": null, "kernel_constraint": null, "bias_constraint": null}, "inbound_nodes": [[["sequential_174", 1, 0, {}]]]}, {"name": "conv3d_314", "class_name": "Conv3D", "config": {"name": "conv3d_314", "trainable": true, "dtype": "float32", "filters": 1024, "kernel_size": [1, 1, 1], "strides": [1, 1, 1], "padding": "valid", "data_format": "channels_last", "dilation_rate": [1, 1, 1], "activation": "linear", "use_bias": false, "kernel_initializer": {"class_name": "VarianceScaling", "config": {"scale": 1.0, "mode": "fan_avg", "distribution": "uniform", "seed": null}}, "bias_initializer": {"class_name": "Zeros", "config": {}}, "kernel_regularizer": null, "bias_regularizer": null, "activity_regularizer": null, "kernel_constraint": null, "bias_constraint": null}, "inbound_nodes": [[["sequential_211", 1, 0, {}]]]}, {"name": "batch_normalization_249", "class_name": "BatchNormalization", "config": {"name": "batch_normalization_249", "trainable": true, "dtype": "float32", "axis": -1, "momentum": 0.99, "epsilon": 0.001, "center": true, "scale": true, "beta_initializer": {"class_name": "Zeros", "config": {}}, "gamma_initializer": {"class_name": "Ones", "config": {}}, "moving_mean_initializer": {"class_name": "Zeros", "config": {}}, "moving_variance_initializer": {"class_name": "Ones", "config": {}}, "beta_regularizer": null, "gamma_regularizer": null, "beta_constraint": null, "gamma_constraint": null}, "inbound_nodes": [[["conv3d_260", 0, 0, {}]]]}, {"name": "batch_normalization_302", "class_name": "BatchNormalization", "config": {"name": "batch_normalization_302", "trainable": true, "dtype": "float32", "axis": -1, "momentum": 0.99, "epsilon": 0.001, "center": true, "scale": true, "beta_initializer": {"class_name": "Zeros", "config": {}}, "gamma_initializer": {"class_name": "Ones", "config": {}}, "moving_mean_initializer": {"class_name": "Zeros", "config": {}}, "moving_variance_initializer": {"class_name": "Ones", "config": {}}, "beta_regularizer": null, "gamma_regularizer": null, "beta_constraint": null, "gamma_constraint": null}, "inbound_nodes": [[["conv3d_314", 0, 0, {}]]]}, {"name": "add_75", "class_name": "Add", "config": {"name": "add_75", "trainable": true, "dtype": "float32"}, "inbound_nodes": [[["batch_normalization_249", 0, 0, {}], ["re_lu_227", 0, 0, {}]]]}, {"name": "add_91", "class_name": "Add", "config": {"name": "add_91", "trainable": true, "dtype": "float32"}, "inbound_nodes": [[["batch_normalization_302", 0, 0, {}], ["re_lu_276", 0, 0, {}]]]}, {"name": "re_lu_230", "class_name": "ReLU", "config": {"name": "re_lu_230", "trainable": true, "dtype": "float32", "max_value": null, "negative_slope": 0.0, "threshold": 0.0}, "inbound_nodes": [[["add_75", 0, 0, {}]]]}, {"name": "re_lu_279", "class_name": "ReLU", "config": {"name": "re_lu_279", "trainable": true, "dtype": "float32", "max_value": null, "negative_slope": 0.0, "threshold": 0.0}, "inbound_nodes": [[["add_91", 0, 0, {}]]]}, {"name": "sequential_175", "class_name": "Sequential", "config": {"name": "sequential_175", "layers": [{"class_name": "Conv3D", "config": {"name": "conv3d_261", "trainable": true, "dtype": "float32", "filters": 32, "kernel_size": [3, 1, 1], "strides": [1, 1, 1], "padding": "same", "data_format": "channels_last", "dilation_rate": [1, 1, 1], "activation": "linear", "use_bias": false, "kernel_initializer": {"class_name": "VarianceScaling", "config": {"scale": 1.0, "mode": "fan_avg", "distribution": "uniform", "seed": null}}, "bias_initializer": {"class_name": "Zeros", "config": {}}, "kernel_regularizer": null, "bias_regularizer": null, "activity_regularizer": null, "kernel_constraint": null, "bias_constraint": null}}, {"class_name": "BatchNormalization", "config": {"name": "batch_normalization_250", "trainable": true, "dtype": "float32", "axis": -1, "momentum": 0.99, "epsilon": 0.001, "center": true, "scale": true, "beta_initializer": {"class_name": "Zeros", "config": {}}, "gamma_initializer": {"class_name": "Ones", "config": {}}, "moving_mean_initializer": {"class_name": "Zeros", "config": {}}, "moving_variance_initializer": {"class_name": "Ones", "config": {}}, "beta_regularizer": null, "gamma_regularizer": null, "beta_constraint": null, "gamma_constraint": null}}, {"class_name": "ReLU", "config": {"name": "re_lu_231", "trainable": true, "dtype": "float32", "max_value": null, "negative_slope": 0.0, "threshold": 0.0}}], "build_input_shape": [null, 13, 14, 14, 128]}, "inbound_nodes": [[["re_lu_230", 0, 0, {}]]]}, {"name": "sequential_212", "class_name": "Sequential", "config": {"name": "sequential_212", "layers": [{"class_name": "Conv3D", "config": {"name": "conv3d_315", "trainable": true, "dtype": "float32", "filters": 256, "kernel_size": [1, 1, 1], "strides": [1, 1, 1], "padding": "same", "data_format": "channels_last", "dilation_rate": [1, 1, 1], "activation": "linear", "use_bias": false, "kernel_initializer": {"class_name": "VarianceScaling", "config": {"scale": 1.0, "mode": "fan_avg", "distribution": "uniform", "seed": null}}, "bias_initializer": {"class_name": "Zeros", "config": {}}, "kernel_regularizer": null, "bias_regularizer": null, "activity_regularizer": null, "kernel_constraint": null, "bias_constraint": null}}, {"class_name": "BatchNormalization", "config": {"name": "batch_normalization_303", "trainable": true, "dtype": "float32", "axis": -1, "momentum": 0.99, "epsilon": 0.001, "center": true, "scale": true, "beta_initializer": {"class_name": "Zeros", "config": {}}, "gamma_initializer": {"class_name": "Ones", "config": {}}, "moving_mean_initializer": {"class_name": "Zeros", "config": {}}, "moving_variance_initializer": {"class_name": "Ones", "config": {}}, "beta_regularizer": null, "gamma_regularizer": null, "beta_constraint": null, "gamma_constraint": null}}, {"class_name": "ReLU", "config": {"name": "re_lu_280", "trainable": true, "dtype": "float32", "max_value": null, "negative_slope": 0.0, "threshold": 0.0}}], "build_input_shape": [null, 2, 14, 14, 1024]}, "inbound_nodes": [[["re_lu_279", 0, 0, {}]]]}, {"name": "sequential_176", "class_name": "Sequential", "config": {"name": "sequential_176", "layers": [{"class_name": "Conv3D", "config": {"name": "conv3d_262", "trainable": true, "dtype": "float32", "filters": 32, "kernel_size": [1, 3, 3], "strides": [1, 1, 1], "padding": "same", "data_format": "channels_last", "dilation_rate": [1, 1, 1], "activation": "linear", "use_bias": false, "kernel_initializer": {"class_name": "VarianceScaling", "config": {"scale": 1.0, "mode": "fan_avg", "distribution": "uniform", "seed": null}}, "bias_initializer": {"class_name": "Zeros", "config": {}}, "kernel_regularizer": null, "bias_regularizer": null, "activity_regularizer": null, "kernel_constraint": null, "bias_constraint": null}}, {"class_name": "BatchNormalization", "config": {"name": "batch_normalization_251", "trainable": true, "dtype": "float32", "axis": -1, "momentum": 0.99, "epsilon": 0.001, "center": true, "scale": true, "beta_initializer": {"class_name": "Zeros", "config": {}}, "gamma_initializer": {"class_name": "Ones", "config": {}}, "moving_mean_initializer": {"class_name": "Zeros", "config": {}}, "moving_variance_initializer": {"class_name": "Ones", "config": {}}, "beta_regularizer": null, "gamma_regularizer": null, "beta_constraint": null, "gamma_constraint": null}}, {"class_name": "ReLU", "config": {"name": "re_lu_232", "trainable": true, "dtype": "float32", "max_value": null, "negative_slope": 0.0, "threshold": 0.0}}], "build_input_shape": [null, 13, 14, 14, 32]}, "inbound_nodes": [[["sequential_175", 1, 0, {}]]]}, {"name": "sequential_213", "class_name": "Sequential", "config": {"name": "sequential_213", "layers": [{"class_name": "Conv3D", "config": {"name": "conv3d_316", "trainable": true, "dtype": "float32", "filters": 256, "kernel_size": [1, 3, 3], "strides": [1, 1, 1], "padding": "same", "data_format": "channels_last", "dilation_rate": [1, 1, 1], "activation": "linear", "use_bias": false, "kernel_initializer": {"class_name": "VarianceScaling", "config": {"scale": 1.0, "mode": "fan_avg", "distribution": "uniform", "seed": null}}, "bias_initializer": {"class_name": "Zeros", "config": {}}, "kernel_regularizer": null, "bias_regularizer": null, "activity_regularizer": null, "kernel_constraint": null, "bias_constraint": null}}, {"class_name": "BatchNormalization", "config": {"name": "batch_normalization_304", "trainable": true, "dtype": "float32", "axis": -1, "momentum": 0.99, "epsilon": 0.001, "center": true, "scale": true, "beta_initializer": {"class_name": "Zeros", "config": {}}, "gamma_initializer": {"class_name": "Ones", "config": {}}, "moving_mean_initializer": {"class_name": "Zeros", "config": {}}, "moving_variance_initializer": {"class_name": "Ones", "config": {}}, "beta_regularizer": null, "gamma_regularizer": null, "beta_constraint": null, "gamma_constraint": null}}, {"class_name": "ReLU", "config": {"name": "re_lu_281", "trainable": true, "dtype": "float32", "max_value": null, "negative_slope": 0.0, "threshold": 0.0}}], "build_input_shape": [null, 2, 14, 14, 256]}, "inbound_nodes": [[["sequential_212", 1, 0, {}]]]}, {"name": "conv3d_263", "class_name": "Conv3D", "config": {"name": "conv3d_263", "trainable": true, "dtype": "float32", "filters": 128, "kernel_size": [1, 1, 1], "strides": [1, 1, 1], "padding": "valid", "data_format": "channels_last", "dilation_rate": [1, 1, 1], "activation": "linear", "use_bias": false, "kernel_initializer": {"class_name": "VarianceScaling", "config": {"scale": 1.0, "mode": "fan_avg", "distribution": "uniform", "seed": null}}, "bias_initializer": {"class_name": "Zeros", "config": {}}, "kernel_regularizer": null, "bias_regularizer": null, "activity_regularizer": null, "kernel_constraint": null, "bias_constraint": null}, "inbound_nodes": [[["sequential_176", 1, 0, {}]]]}, {"name": "conv3d_317", "class_name": "Conv3D", "config": {"name": "conv3d_317", "trainable": true, "dtype": "float32", "filters": 1024, "kernel_size": [1, 1, 1], "strides": [1, 1, 1], "padding": "valid", "data_format": "channels_last", "dilation_rate": [1, 1, 1], "activation": "linear", "use_bias": false, "kernel_initializer": {"class_name": "VarianceScaling", "config": {"scale": 1.0, "mode": "fan_avg", "distribution": "uniform", "seed": null}}, "bias_initializer": {"class_name": "Zeros", "config": {}}, "kernel_regularizer": null, "bias_regularizer": null, "activity_regularizer": null, "kernel_constraint": null, "bias_constraint": null}, "inbound_nodes": [[["sequential_213", 1, 0, {}]]]}, {"name": "batch_normalization_252", "class_name": "BatchNormalization", "config": {"name": "batch_normalization_252", "trainable": true, "dtype": "float32", "axis": -1, "momentum": 0.99, "epsilon": 0.001, "center": true, "scale": true, "beta_initializer": {"class_name": "Zeros", "config": {}}, "gamma_initializer": {"class_name": "Ones", "config": {}}, "moving_mean_initializer": {"class_name": "Zeros", "config": {}}, "moving_variance_initializer": {"class_name": "Ones", "config": {}}, "beta_regularizer": null, "gamma_regularizer": null, "beta_constraint": null, "gamma_constraint": null}, "inbound_nodes": [[["conv3d_263", 0, 0, {}]]]}, {"name": "batch_normalization_305", "class_name": "BatchNormalization", "config": {"name": "batch_normalization_305", "trainable": true, "dtype": "float32", "axis": -1, "momentum": 0.99, "epsilon": 0.001, "center": true, "scale": true, "beta_initializer": {"class_name": "Zeros", "config": {}}, "gamma_initializer": {"class_name": "Ones", "config": {}}, "moving_mean_initializer": {"class_name": "Zeros", "config": {}}, "moving_variance_initializer": {"class_name": "Ones", "config": {}}, "beta_regularizer": null, "gamma_regularizer": null, "beta_constraint": null, "gamma_constraint": null}, "inbound_nodes": [[["conv3d_317", 0, 0, {}]]]}, {"name": "add_76", "class_name": "Add", "config": {"name": "add_76", "trainable": true, "dtype": "float32"}, "inbound_nodes": [[["batch_normalization_252", 0, 0, {}], ["re_lu_230", 0, 0, {}]]]}, {"name": "add_92", "class_name": "Add", "config": {"name": "add_92", "trainable": true, "dtype": "float32"}, "inbound_nodes": [[["batch_normalization_305", 0, 0, {}], ["re_lu_279", 0, 0, {}]]]}, {"name": "re_lu_233", "class_name": "ReLU", "config": {"name": "re_lu_233", "trainable": true, "dtype": "float32", "max_value": null, "negative_slope": 0.0, "threshold": 0.0}, "inbound_nodes": [[["add_76", 0, 0, {}]]]}, {"name": "re_lu_282", "class_name": "ReLU", "config": {"name": "re_lu_282", "trainable": true, "dtype": "float32", "max_value": null, "negative_slope": 0.0, "threshold": 0.0}, "inbound_nodes": [[["add_92", 0, 0, {}]]]}, {"name": "sequential_177", "class_name": "Sequential", "config": {"name": "sequential_177", "layers": [{"class_name": "Conv3D", "config": {"name": "conv3d_264", "trainable": true, "dtype": "float32", "filters": 32, "kernel_size": [3, 1, 1], "strides": [1, 1, 1], "padding": "same", "data_format": "channels_last", "dilation_rate": [1, 1, 1], "activation": "linear", "use_bias": false, "kernel_initializer": {"class_name": "VarianceScaling", "config": {"scale": 1.0, "mode": "fan_avg", "distribution": "uniform", "seed": null}}, "bias_initializer": {"class_name": "Zeros", "config": {}}, "kernel_regularizer": null, "bias_regularizer": null, "activity_regularizer": null, "kernel_constraint": null, "bias_constraint": null}}, {"class_name": "BatchNormalization", "config": {"name": "batch_normalization_253", "trainable": true, "dtype": "float32", "axis": -1, "momentum": 0.99, "epsilon": 0.001, "center": true, "scale": true, "beta_initializer": {"class_name": "Zeros", "config": {}}, "gamma_initializer": {"class_name": "Ones", "config": {}}, "moving_mean_initializer": {"class_name": "Zeros", "config": {}}, "moving_variance_initializer": {"class_name": "Ones", "config": {}}, "beta_regularizer": null, "gamma_regularizer": null, "beta_constraint": null, "gamma_constraint": null}}, {"class_name": "ReLU", "config": {"name": "re_lu_234", "trainable": true, "dtype": "float32", "max_value": null, "negative_slope": 0.0, "threshold": 0.0}}], "build_input_shape": [null, 13, 14, 14, 128]}, "inbound_nodes": [[["re_lu_233", 0, 0, {}]]]}, {"name": "sequential_214", "class_name": "Sequential", "config": {"name": "sequential_214", "layers": [{"class_name": "Conv3D", "config": {"name": "conv3d_318", "trainable": true, "dtype": "float32", "filters": 256, "kernel_size": [1, 1, 1], "strides": [1, 1, 1], "padding": "same", "data_format": "channels_last", "dilation_rate": [1, 1, 1], "activation": "linear", "use_bias": false, "kernel_initializer": {"class_name": "VarianceScaling", "config": {"scale": 1.0, "mode": "fan_avg", "distribution": "uniform", "seed": null}}, "bias_initializer": {"class_name": "Zeros", "config": {}}, "kernel_regularizer": null, "bias_regularizer": null, "activity_regularizer": null, "kernel_constraint": null, "bias_constraint": null}}, {"class_name": "BatchNormalization", "config": {"name": "batch_normalization_306", "trainable": true, "dtype": "float32", "axis": -1, "momentum": 0.99, "epsilon": 0.001, "center": true, "scale": true, "beta_initializer": {"class_name": "Zeros", "config": {}}, "gamma_initializer": {"class_name": "Ones", "config": {}}, "moving_mean_initializer": {"class_name": "Zeros", "config": {}}, "moving_variance_initializer": {"class_name": "Ones", "config": {}}, "beta_regularizer": null, "gamma_regularizer": null, "beta_constraint": null, "gamma_constraint": null}}, {"class_name": "ReLU", "config": {"name": "re_lu_283", "trainable": true, "dtype": "float32", "max_value": null, "negative_slope": 0.0, "threshold": 0.0}}], "build_input_shape": [null, 2, 14, 14, 1024]}, "inbound_nodes": [[["re_lu_282", 0, 0, {}]]]}, {"name": "sequential_178", "class_name": "Sequential", "config": {"name": "sequential_178", "layers": [{"class_name": "Conv3D", "config": {"name": "conv3d_265", "trainable": true, "dtype": "float32", "filters": 32, "kernel_size": [1, 3, 3], "strides": [1, 1, 1], "padding": "same", "data_format": "channels_last", "dilation_rate": [1, 1, 1], "activation": "linear", "use_bias": false, "kernel_initializer": {"class_name": "VarianceScaling", "config": {"scale": 1.0, "mode": "fan_avg", "distribution": "uniform", "seed": null}}, "bias_initializer": {"class_name": "Zeros", "config": {}}, "kernel_regularizer": null, "bias_regularizer": null, "activity_regularizer": null, "kernel_constraint": null, "bias_constraint": null}}, {"class_name": "BatchNormalization", "config": {"name": "batch_normalization_254", "trainable": true, "dtype": "float32", "axis": -1, "momentum": 0.99, "epsilon": 0.001, "center": true, "scale": true, "beta_initializer": {"class_name": "Zeros", "config": {}}, "gamma_initializer": {"class_name": "Ones", "config": {}}, "moving_mean_initializer": {"class_name": "Zeros", "config": {}}, "moving_variance_initializer": {"class_name": "Ones", "config": {}}, "beta_regularizer": null, "gamma_regularizer": null, "beta_constraint": null, "gamma_constraint": null}}, {"class_name": "ReLU", "config": {"name": "re_lu_235", "trainable": true, "dtype": "float32", "max_value": null, "negative_slope": 0.0, "threshold": 0.0}}], "build_input_shape": [null, 13, 14, 14, 32]}, "inbound_nodes": [[["sequential_177", 1, 0, {}]]]}, {"name": "sequential_215", "class_name": "Sequential", "config": {"name": "sequential_215", "layers": [{"class_name": "Conv3D", "config": {"name": "conv3d_319", "trainable": true, "dtype": "float32", "filters": 256, "kernel_size": [1, 3, 3], "strides": [1, 1, 1], "padding": "same", "data_format": "channels_last", "dilation_rate": [1, 1, 1], "activation": "linear", "use_bias": false, "kernel_initializer": {"class_name": "VarianceScaling", "config": {"scale": 1.0, "mode": "fan_avg", "distribution": "uniform", "seed": null}}, "bias_initializer": {"class_name": "Zeros", "config": {}}, "kernel_regularizer": null, "bias_regularizer": null, "activity_regularizer": null, "kernel_constraint": null, "bias_constraint": null}}, {"class_name": "BatchNormalization", "config": {"name": "batch_normalization_307", "trainable": true, "dtype": "float32", "axis": -1, "momentum": 0.99, "epsilon": 0.001, "center": true, "scale": true, "beta_initializer": {"class_name": "Zeros", "config": {}}, "gamma_initializer": {"class_name": "Ones", "config": {}}, "moving_mean_initializer": {"class_name": "Zeros", "config": {}}, "moving_variance_initializer": {"class_name": "Ones", "config": {}}, "beta_regularizer": null, "gamma_regularizer": null, "beta_constraint": null, "gamma_constraint": null}}, {"class_name": "ReLU", "config": {"name": "re_lu_284", "trainable": true, "dtype": "float32", "max_value": null, "negative_slope": 0.0, "threshold": 0.0}}], "build_input_shape": [null, 2, 14, 14, 256]}, "inbound_nodes": [[["sequential_214", 1, 0, {}]]]}, {"name": "conv3d_266", "class_name": "Conv3D", "config": {"name": "conv3d_266", "trainable": true, "dtype": "float32", "filters": 128, "kernel_size": [1, 1, 1], "strides": [1, 1, 1], "padding": "valid", "data_format": "channels_last", "dilation_rate": [1, 1, 1], "activation": "linear", "use_bias": false, "kernel_initializer": {"class_name": "VarianceScaling", "config": {"scale": 1.0, "mode": "fan_avg", "distribution": "uniform", "seed": null}}, "bias_initializer": {"class_name": "Zeros", "config": {}}, "kernel_regularizer": null, "bias_regularizer": null, "activity_regularizer": null, "kernel_constraint": null, "bias_constraint": null}, "inbound_nodes": [[["sequential_178", 1, 0, {}]]]}, {"name": "conv3d_320", "class_name": "Conv3D", "config": {"name": "conv3d_320", "trainable": true, "dtype": "float32", "filters": 1024, "kernel_size": [1, 1, 1], "strides": [1, 1, 1], "padding": "valid", "data_format": "channels_last", "dilation_rate": [1, 1, 1], "activation": "linear", "use_bias": false, "kernel_initializer": {"class_name": "VarianceScaling", "config": {"scale": 1.0, "mode": "fan_avg", "distribution": "uniform", "seed": null}}, "bias_initializer": {"class_name": "Zeros", "config": {}}, "kernel_regularizer": null, "bias_regularizer": null, "activity_regularizer": null, "kernel_constraint": null, "bias_constraint": null}, "inbound_nodes": [[["sequential_215", 1, 0, {}]]]}, {"name": "batch_normalization_255", "class_name": "BatchNormalization", "config": {"name": "batch_normalization_255", "trainable": true, "dtype": "float32", "axis": -1, "momentum": 0.99, "epsilon": 0.001, "center": true, "scale": true, "beta_initializer": {"class_name": "Zeros", "config": {}}, "gamma_initializer": {"class_name": "Ones", "config": {}}, "moving_mean_initializer": {"class_name": "Zeros", "config": {}}, "moving_variance_initializer": {"class_name": "Ones", "config": {}}, "beta_regularizer": null, "gamma_regularizer": null, "beta_constraint": null, "gamma_constraint": null}, "inbound_nodes": [[["conv3d_266", 0, 0, {}]]]}, {"name": "batch_normalization_308", "class_name": "BatchNormalization", "config": {"name": "batch_normalization_308", "trainable": true, "dtype": "float32", "axis": -1, "momentum": 0.99, "epsilon": 0.001, "center": true, "scale": true, "beta_initializer": {"class_name": "Zeros", "config": {}}, "gamma_initializer": {"class_name": "Ones", "config": {}}, "moving_mean_initializer": {"class_name": "Zeros", "config": {}}, "moving_variance_initializer": {"class_name": "Ones", "config": {}}, "beta_regularizer": null, "gamma_regularizer": null, "beta_constraint": null, "gamma_constraint": null}, "inbound_nodes": [[["conv3d_320", 0, 0, {}]]]}, {"name": "add_77", "class_name": "Add", "config": {"name": "add_77", "trainable": true, "dtype": "float32"}, "inbound_nodes": [[["batch_normalization_255", 0, 0, {}], ["re_lu_233", 0, 0, {}]]]}, {"name": "add_93", "class_name": "Add", "config": {"name": "add_93", "trainable": true, "dtype": "float32"}, "inbound_nodes": [[["batch_normalization_308", 0, 0, {}], ["re_lu_282", 0, 0, {}]]]}, {"name": "re_lu_236", "class_name": "ReLU", "config": {"name": "re_lu_236", "trainable": true, "dtype": "float32", "max_value": null, "negative_slope": 0.0, "threshold": 0.0}, "inbound_nodes": [[["add_77", 0, 0, {}]]]}, {"name": "re_lu_285", "class_name": "ReLU", "config": {"name": "re_lu_285", "trainable": true, "dtype": "float32", "max_value": null, "negative_slope": 0.0, "threshold": 0.0}, "inbound_nodes": [[["add_93", 0, 0, {}]]]}, {"name": "conv3d_267", "class_name": "Conv3D", "config": {"name": "conv3d_267", "trainable": true, "dtype": "float32", "filters": 256, "kernel_size": [5, 1, 1], "strides": [8, 1, 1], "padding": "same", "data_format": "channels_last", "dilation_rate": [1, 1, 1], "activation": "linear", "use_bias": false, "kernel_initializer": {"class_name": "VarianceScaling", "config": {"scale": 1.0, "mode": "fan_avg", "distribution": "uniform", "seed": null}}, "bias_initializer": {"class_name": "Zeros", "config": {}}, "kernel_regularizer": null, "bias_regularizer": null, "activity_regularizer": null, "kernel_constraint": null, "bias_constraint": null}, "inbound_nodes": [[["re_lu_236", 0, 0, {}]]]}, {"name": "concatenate_14", "class_name": "Concatenate", "config": {"name": "concatenate_14", "trainable": true, "dtype": "float32", "axis": -1}, "inbound_nodes": [[["re_lu_285", 0, 0, {}], ["conv3d_267", 0, 0, {}]]]}, {"name": "sequential_217", "class_name": "Sequential", "config": {"name": "sequential_217", "layers": [{"class_name": "Conv3D", "config": {"name": "conv3d_322", "trainable": true, "dtype": "float32", "filters": 512, "kernel_size": [1, 1, 1], "strides": [1, 1, 1], "padding": "same", "data_format": "channels_last", "dilation_rate": [1, 1, 1], "activation": "linear", "use_bias": false, "kernel_initializer": {"class_name": "VarianceScaling", "config": {"scale": 1.0, "mode": "fan_avg", "distribution": "uniform", "seed": null}}, "bias_initializer": {"class_name": "Zeros", "config": {}}, "kernel_regularizer": null, "bias_regularizer": null, "activity_regularizer": null, "kernel_constraint": null, "bias_constraint": null}}, {"class_name": "BatchNormalization", "config": {"name": "batch_normalization_310", "trainable": true, "dtype": "float32", "axis": -1, "momentum": 0.99, "epsilon": 0.001, "center": true, "scale": true, "beta_initializer": {"class_name": "Zeros", "config": {}}, "gamma_initializer": {"class_name": "Ones", "config": {}}, "moving_mean_initializer": {"class_name": "Zeros", "config": {}}, "moving_variance_initializer": {"class_name": "Ones", "config": {}}, "beta_regularizer": null, "gamma_regularizer": null, "beta_constraint": null, "gamma_constraint": null}}, {"class_name": "ReLU", "config": {"name": "re_lu_286", "trainable": true, "dtype": "float32", "max_value": null, "negative_slope": 0.0, "threshold": 0.0}}], "build_input_shape": [null, 2, 14, 14, 1280]}, "inbound_nodes": [[["concatenate_14", 0, 0, {}]]]}, {"name": "sequential_180", "class_name": "Sequential", "config": {"name": "sequential_180", "layers": [{"class_name": "Conv3D", "config": {"name": "conv3d_269", "trainable": true, "dtype": "float32", "filters": 64, "kernel_size": [3, 1, 1], "strides": [1, 1, 1], "padding": "same", "data_format": "channels_last", "dilation_rate": [1, 1, 1], "activation": "linear", "use_bias": false, "kernel_initializer": {"class_name": "VarianceScaling", "config": {"scale": 1.0, "mode": "fan_avg", "distribution": "uniform", "seed": null}}, "bias_initializer": {"class_name": "Zeros", "config": {}}, "kernel_regularizer": null, "bias_regularizer": null, "activity_regularizer": null, "kernel_constraint": null, "bias_constraint": null}}, {"class_name": "BatchNormalization", "config": {"name": "batch_normalization_257", "trainable": true, "dtype": "float32", "axis": -1, "momentum": 0.99, "epsilon": 0.001, "center": true, "scale": true, "beta_initializer": {"class_name": "Zeros", "config": {}}, "gamma_initializer": {"class_name": "Ones", "config": {}}, "moving_mean_initializer": {"class_name": "Zeros", "config": {}}, "moving_variance_initializer": {"class_name": "Ones", "config": {}}, "beta_regularizer": null, "gamma_regularizer": null, "beta_constraint": null, "gamma_constraint": null}}, {"class_name": "ReLU", "config": {"name": "re_lu_237", "trainable": true, "dtype": "float32", "max_value": null, "negative_slope": 0.0, "threshold": 0.0}}], "build_input_shape": [null, 13, 14, 14, 128]}, "inbound_nodes": [[["re_lu_236", 0, 0, {}]]]}, {"name": "sequential_218", "class_name": "Sequential", "config": {"name": "sequential_218", "layers": [{"class_name": "Conv3D", "config": {"name": "conv3d_323", "trainable": true, "dtype": "float32", "filters": 512, "kernel_size": [1, 3, 3], "strides": [1, 2, 2], "padding": "same", "data_format": "channels_last", "dilation_rate": [1, 1, 1], "activation": "linear", "use_bias": false, "kernel_initializer": {"class_name": "VarianceScaling", "config": {"scale": 1.0, "mode": "fan_avg", "distribution": "uniform", "seed": null}}, "bias_initializer": {"class_name": "Zeros", "config": {}}, "kernel_regularizer": null, "bias_regularizer": null, "activity_regularizer": null, "kernel_constraint": null, "bias_constraint": null}}, {"class_name": "BatchNormalization", "config": {"name": "batch_normalization_311", "trainable": true, "dtype": "float32", "axis": -1, "momentum": 0.99, "epsilon": 0.001, "center": true, "scale": true, "beta_initializer": {"class_name": "Zeros", "config": {}}, "gamma_initializer": {"class_name": "Ones", "config": {}}, "moving_mean_initializer": {"class_name": "Zeros", "config": {}}, "moving_variance_initializer": {"class_name": "Ones", "config": {}}, "beta_regularizer": null, "gamma_regularizer": null, "beta_constraint": null, "gamma_constraint": null}}, {"class_name": "ReLU", "config": {"name": "re_lu_287", "trainable": true, "dtype": "float32", "max_value": null, "negative_slope": 0.0, "threshold": 0.0}}], "build_input_shape": [null, 2, 14, 14, 512]}, "inbound_nodes": [[["sequential_217", 1, 0, {}]]]}, {"name": "sequential_181", "class_name": "Sequential", "config": {"name": "sequential_181", "layers": [{"class_name": "Conv3D", "config": {"name": "conv3d_270", "trainable": true, "dtype": "float32", "filters": 64, "kernel_size": [1, 3, 3], "strides": [1, 2, 2], "padding": "same", "data_format": "channels_last", "dilation_rate": [1, 1, 1], "activation": "linear", "use_bias": false, "kernel_initializer": {"class_name": "VarianceScaling", "config": {"scale": 1.0, "mode": "fan_avg", "distribution": "uniform", "seed": null}}, "bias_initializer": {"class_name": "Zeros", "config": {}}, "kernel_regularizer": null, "bias_regularizer": null, "activity_regularizer": null, "kernel_constraint": null, "bias_constraint": null}}, {"class_name": "BatchNormalization", "config": {"name": "batch_normalization_258", "trainable": true, "dtype": "float32", "axis": -1, "momentum": 0.99, "epsilon": 0.001, "center": true, "scale": true, "beta_initializer": {"class_name": "Zeros", "config": {}}, "gamma_initializer": {"class_name": "Ones", "config": {}}, "moving_mean_initializer": {"class_name": "Zeros", "config": {}}, "moving_variance_initializer": {"class_name": "Ones", "config": {}}, "beta_regularizer": null, "gamma_regularizer": null, "beta_constraint": null, "gamma_constraint": null}}, {"class_name": "ReLU", "config": {"name": "re_lu_238", "trainable": true, "dtype": "float32", "max_value": null, "negative_slope": 0.0, "threshold": 0.0}}], "build_input_shape": [null, 13, 14, 14, 64]}, "inbound_nodes": [[["sequential_180", 1, 0, {}]]]}, {"name": "conv3d_324", "class_name": "Conv3D", "config": {"name": "conv3d_324", "trainable": true, "dtype": "float32", "filters": 2048, "kernel_size": [1, 1, 1], "strides": [1, 1, 1], "padding": "valid", "data_format": "channels_last", "dilation_rate": [1, 1, 1], "activation": "linear", "use_bias": false, "kernel_initializer": {"class_name": "VarianceScaling", "config": {"scale": 1.0, "mode": "fan_avg", "distribution": "uniform", "seed": null}}, "bias_initializer": {"class_name": "Zeros", "config": {}}, "kernel_regularizer": null, "bias_regularizer": null, "activity_regularizer": null, "kernel_constraint": null, "bias_constraint": null}, "inbound_nodes": [[["sequential_218", 1, 0, {}]]]}, {"name": "conv3d_271", "class_name": "Conv3D", "config": {"name": "conv3d_271", "trainable": true, "dtype": "float32", "filters": 256, "kernel_size": [1, 1, 1], "strides": [1, 1, 1], "padding": "valid", "data_format": "channels_last", "dilation_rate": [1, 1, 1], "activation": "linear", "use_bias": false, "kernel_initializer": {"class_name": "VarianceScaling", "config": {"scale": 1.0, "mode": "fan_avg", "distribution": "uniform", "seed": null}}, "bias_initializer": {"class_name"…
bound_nodes": [[["sequential_184", 1, 0, {}]]]}, {"name": "conv3d_330", "class_name": "Conv3D", "config": {"name": "conv3d_330", "trainable": true, "dtype": "float32", "filters": 2048, "kernel_size": [1, 1, 1], "strides": [1, 1, 1], "padding": "valid", "data_format": "channels_last", "dilation_rate": [1, 1, 1], "activation": "linear", "use_bias": false, "kernel_initializer": {"class_name": "VarianceScaling", "config": {"scale": 1.0, "mode": "fan_avg", "distribution": "uniform", "seed": null}}, "bias_initializer": {"class_name": "Zeros", "config": {}}, "kernel_regularizer": null, "bias_regularizer": null, "activity_regularizer": null, "kernel_constraint": null, "bias_constraint": null}, "inbound_nodes": [[["sequential_222", 1, 0, {}]]]}, {"name": "conv3d_277", "class_name": "Conv3D", "config": {"name": "conv3d_277", "trainable": true, "dtype": "float32", "filters": 256, "kernel_size": [1, 1, 1], "strides": [1, 1, 1], "padding": "valid", "data_format": "channels_last", "dilation_rate": [1, 1, 1], "activation": "linear", "use_bias": false, "kernel_initializer": {"class_name": "VarianceScaling", "config": {"scale": 1.0, "mode": "fan_avg", "distribution": "uniform", "seed": null}}, "bias_initializer": {"class_name": "Zeros", "config": {}}, "kernel_regularizer": null, "bias_regularizer": null, "activity_regularizer": null, "kernel_constraint": null, "bias_constraint": null}, "inbound_nodes": [[["sequential_185", 1, 0, {}]]]}, {"name": "batch_normalization_318", "class_name": "BatchNormalization", "config": {"name": "batch_normalization_318", "trainable": true, "dtype": "float32", "axis": -1, "momentum": 0.99, "epsilon": 0.001, "center": true, "scale": true, "beta_initializer": {"class_name": "Zeros", "config": {}}, "gamma_initializer": {"class_name": "Ones", "config": {}}, "moving_mean_initializer": {"class_name": "Zeros", "config": {}}, "moving_variance_initializer": {"class_name": "Ones", "config": {}}, "beta_regularizer": null, "gamma_regularizer": null, "beta_constraint": null, "gamma_constraint": null}, "inbound_nodes": [[["conv3d_330", 0, 0, {}]]]}, {"name": "batch_normalization_265", "class_name": "BatchNormalization", "config": {"name": "batch_normalization_265", "trainable": true, "dtype": "float32", "axis": -1, "momentum": 0.99, "epsilon": 0.001, "center": true, "scale": true, "beta_initializer": {"class_name": "Zeros", "config": {}}, "gamma_initializer": {"class_name": "Ones", "config": {}}, "moving_mean_initializer": {"class_name": "Zeros", "config": {}}, "moving_variance_initializer": {"class_name": "Ones", "config": {}}, "beta_regularizer": null, "gamma_regularizer": null, "beta_constraint": null, "gamma_constraint": null}, "inbound_nodes": [[["conv3d_277", 0, 0, {}]]]}, {"name": "add_96", "class_name": "Add", "config": {"name": "add_96", "trainable": true, "dtype": "float32"}, "inbound_nodes": [[["batch_normalization_318", 0, 0, {}], ["re_lu_291", 0, 0, {}]]]}, {"name": "add_80", "class_name": "Add", "config": {"name": "add_80", "trainable": true, "dtype": "float32"}, "inbound_nodes": [[["batch_normalization_265", 0, 0, {}], ["re_lu_242", 0, 0, {}]]]}, {"name": "re_lu_294", "class_name": "ReLU", "config": {"name": "re_lu_294", "trainable": true, "dtype": "float32", "max_value": null, "negative_slope": 0.0, "threshold": 0.0}, "inbound_nodes": [[["add_96", 0, 0, {}]]]}, {"name": "re_lu_245", "class_name": "ReLU", "config": {"name": "re_lu_245", "trainable": true, "dtype": "float32", "max_value": null, "negative_slope": 0.0, "threshold": 0.0}, "inbound_nodes": [[["add_80", 0, 0, {}]]]}, {"name": "global_average_pooling3d_6", "class_name": "GlobalAveragePooling3D", "config": {"name": "global_average_pooling3d_6", "trainable": true, "dtype": "float32", "data_format": "channels_last"}, "inbound_nodes": [[["re_lu_294", 0, 0, {}]]]}, {"name": "global_average_pooling3d_5", "class_name": "GlobalAveragePooling3D", "config": {"name": "global_average_pooling3d_5", "trainable": true, "dtype": "float32", "data_format": "channels_last"}, "inbound_nodes": [[["re_lu_245", 0, 0, {}]]]}, {"name": "concatenate_15", "class_name": "Concatenate", "config": {"name": "concatenate_15", "trainable": true, "dtype": "float32", "axis": -1}, "inbound_nodes": [[["global_average_pooling3d_6", 0, 0, {}], ["global_average_pooling3d_5", 0, 0, {}]]]}, {"name": "dropout_3", "class_name": "Dropout", "config": {"name": "dropout_3", "trainable": true, "dtype": "float32", "rate": 0.5, "noise_shape": null, "seed": null}, "inbound_nodes": [[["concatenate_15", 0, 0, {}]]]}, {"name": "dense_3", "class_name": "Dense", "config": {"name": "dense_3", "trainable": true, "dtype": "float32", "units": 14, "activation": "softmax", "use_bias": true, "kernel_initializer": {"class_name": "VarianceScaling", "config": {"scale": 1.0, "mode": "fan_avg", "distribution": "uniform", "seed": null}}, "bias_initializer": {"class_name": "Zeros", "config": {}}, "kernel_regularizer": null, "bias_regularizer": null, "activity_regularizer": null, "kernel_constraint": null, "bias_constraint": null}, "inbound_nodes": [[["dropout_3", 0, 0, {}]]]}], "input_layers": [["input_3", 0, 0]], "output_layers": [["dense_3", 0, 0]]}}, "training_config": {"optimizer_config": {"class_name": "SGD", "config": {"learning_rate": 0.009999999776482582, "momentum": 0.8999999761581421, "decay": 0.0, "nesterov": false}}, "loss": "categorical_crossentropy", "metrics": ["accuracy"], "weighted_metrics": null, "sample_weight_mode": null, "loss_weights": null}}, "weightsManifest": [{"paths": ["group1-shard1of25.bin", "group1-shard2of25.bin", "group1-shard3of25.bin", "group1-shard4of25.bin", "group1-shard5of25.bin", "group1-shard6of25.bin", "group1-shard7of25.bin", "group1-shard8of25.bin", "group1-shard9of25.bin", "group1-shard10of25.bin", "group1-shard11of25.bin", "group1-shard12of25.bin", "group1-shard13of25.bin", "group1-shard14of25.bin", "group1-shard15of25.bin", "group1-shard16of25.bin", "group1-shard17of25.bin", "group1-shard18of25.bin", "group1-shard19of25.bin", "group1-shard20of25.bin", "group1-shard21of25.bin", "group1-shard22of25.bin", "group1-shard23of25.bin", "group1-shard24of25.bin", "group1-shard25of25.bin"], "weights": [{"name": "batch_normalization_217/gamma", "shape": [32], "dtype": "float32"}, {"name": "batch_normalization_217/beta", "shape": [32], "dtype": "float32"}, {"name": "batch_normalization_217/moving_mean", "shape": [32], "dtype": "float32"}, {"name": "batch_normalization_217/moving_variance", "shape": [32], "dtype": "float32"}, {"name": "batch_normalization_220/gamma", "shape": [32], "dtype": "float32"}, {"name": "batch_normalization_220/beta", "shape": [32], "dtype": "float32"}, {"name": "batch_normalization_220/moving_mean", "shape": [32], "dtype": "float32"}, {"name": "batch_normalization_220/moving_variance", "shape": [32], "dtype": "float32"}, {"name": "batch_normalization_223/gamma", "shape": [32], "dtype": "float32"}, {"name": "batch_normalization_223/beta", "shape": [32], "dtype": "float32"}, {"name": "batch_normalization_223/moving_mean", "shape": [32], "dtype": "float32"}, {"name": "batch_normalization_223/moving_variance", "shape": [32], "dtype": "float32"}, {"name": "batch_normalization_227/gamma", "shape": [64], "dtype": "float32"}, {"name": "batch_normalization_227/beta", "shape": [64], "dtype": "float32"}, {"name": "batch_normalization_227/moving_mean", "shape": [64], "dtype": "float32"}, {"name": "batch_normalization_227/moving_variance", "shape": [64], "dtype": "float32"}, {"name": "batch_normalization_230/gamma", "shape": [64], "dtype": "float32"}, {"name": "batch_normalization_230/beta", "shape": [64], "dtype": "float32"}, {"name": "batch_normalization_230/moving_mean", "shape": [64], "dtype": "float32"}, {"name": "batch_normalization_230/moving_variance", "shape": [64], "dtype": "float32"}, {"name": "batch_normalization_233/gamma", "shape": [64], "dtype": "float32"}, {"name": "batch_normalization_233/beta", "shape": [64], "dtype": "float32"}, {"name": "batch_normalization_233/moving_mean", "shape": [64], "dtype": "float32"}, {"name": "batch_normalization_233/moving_variance", "shape": [64], "dtype": "float32"}, {"name": "batch_normalization_236/gamma", "shape": [64], "dtype": "float32"}, {"name": "batch_normalization_236/beta", "shape": [64], "dtype": "float32"}, {"name": "batch_normalization_236/moving_mean", "shape": [64], "dtype": "float32"}, {"name": "batch_normalization_236/moving_variance", "shape": [64], "dtype": "float32"}, {"name": "batch_normalization_240/gamma", "shape": [128], "dtype": "float32"}, {"name": "batch_normalization_240/beta", "shape": [128], "dtype": "float32"}, {"name": "batch_normalization_240/moving_mean", "shape": [128], "dtype": "float32"}, {"name": "batch_normalization_240/moving_variance", "shape": [128], "dtype": "float32"}, {"name": "batch_normalization_243/gamma", "shape": [128], "dtype": "float32"}, {"name": "batch_normalization_243/beta", "shape": [128], "dtype": "float32"}, {"name": "batch_normalization_243/moving_mean", "shape": [128], "dtype": "float32"}, {"name": "batch_normalization_243/moving_variance", "shape": [128], "dtype": "float32"}, {"name": "batch_normalization_246/gamma", "shape": [128], "dtype": "float32"}, {"name": "batch_normalization_246/beta", "shape": [128], "dtype": "float32"}, {"name": "batch_normalization_246/moving_mean", "shape": [128], "dtype": "float32"}, {"name": "batch_normalization_246/moving_variance", "shape": [128], "dtype": "float32"}, {"name": "batch_normalization_249/gamma", "shape": [128], "dtype": "float32"}, {"name": "batch_normalization_249/beta", "shape": [128], "dtype": "float32"}, {"name": "batch_normalization_249/moving_mean", "shape": [128], "dtype": "float32"}, {"name": "batch_normalization_249/moving_variance", "shape": [128], "dtype": "float32"}, {"name": "batch_normalization_252/gamma", "shape": [128], "dtype": "float32"}, {"name": "batch_normalization_252/beta", "shape": [128], "dtype": "float32"}, {"name": "batch_normalization_252/moving_mean", "shape": [128], "dtype": "float32"}, {"name": "batch_normalization_252/moving_variance", "shape": [128], "dtype": "float32"}, {"name": "batch_normalization_255/gamma", "shape": [128], "dtype": "float32"}, {"name": "batch_normalization_255/beta", "shape": [128], "dtype": "float32"}, {"name": "batch_normalization_255/moving_mean", "shape": [128], "dtype": "float32"}, {"name": "batch_normalization_255/moving_variance", "shape": [128], "dtype": "float32"}, {"name": "batch_normalization_259/gamma", "shape": [256], "dtype": "float32"}, {"name": "batch_normalization_259/beta", "shape": [256], "dtype": "float32"}, {"name": "batch_normalization_259/moving_mean", "shape": [256], "dtype": "float32"}, {"name": "batch_normalization_259/moving_variance", "shape": [256], "dtype": "float32"}, {"name": "batch_normalization_262/gamma", "shape": [256], "dtype": "float32"}, {"name": "batch_normalization_262/beta", "shape": [256], "dtype": "float32"}, {"name": "batch_normalization_262/moving_mean", "shape": [256], "dtype": "float32"}, {"name": "batch_normalization_262/moving_variance", "shape": [256], "dtype": "float32"}, {"name": "batch_normalization_265/gamma", "shape": [256], "dtype": "float32"}, {"name": "batch_normalization_265/beta", "shape": [256], "dtype": "float32"}, {"name": "batch_normalization_265/moving_mean", "shape": [256], "dtype": "float32"}, {"name": "batch_normalization_265/moving_variance", "shape": [256], "dtype": "float32"}, {"name": "batch_normalization_270/gamma", "shape": [256], "dtype": "float32"}, {"name": "batch_normalization_270/beta", "shape": [256], "dtype": "float32"}, {"name": "batch_normalization_270/moving_mean", "shape": [256], "dtype": "float32"}, {"name": "batch_normalization_270/moving_variance", "shape": [256], "dtype": "float32"}, {"name": "batch_normalization_273/gamma", "shape": [256], "dtype": "float32"}, {"name": "batch_normalization_273/beta", "shape": [256], "dtype": "float32"}, {"name": "batch_normalization_273/moving_mean", "shape": [256], "dtype": "float32"}, {"name": "batch_normalization_273/moving_variance", "shape": [256], "dtype": "float32"}, {"name": "batch_normalization_276/gamma", "shape": [256], "dtype": "float32"}, {"name": "batch_normalization_276/beta", "shape": [256], "dtype": "float32"}, {"name": "batch_normalization_276/moving_mean", "shape": [256], "dtype": "float32"}, {"name": "batch_normalization_276/moving_variance", "shape": [256], "dtype": "float32"}, {"name": "batch_normalization_280/gamma", "shape": [512], "dtype": "float32"}, {"name": "batch_normalization_280/beta", "shape": [512], "dtype": "float32"}, {"name": "batch_normalization_280/moving_mean", "shape": [512], "dtype": "float32"}, {"name": "batch_normalization_280/moving_variance", "shape": [512], "dtype": "float32"}, {"name": "batch_normalization_283/gamma", "shape": [512], "dtype": "float32"}, {"name": "batch_normalization_283/beta", "shape": [512], "dtype": "float32"}, {"name": "batch_normalization_283/moving_mean", "shape": [512], "dtype": "float32"}, {"name": "batch_normalization_283/moving_variance", "shape": [512], "dtype": "float32"}, {"name": "batch_normalization_286/gamma", "shape": [512], "dtype": "float32"}, {"name": "batch_normalization_286/beta", "shape": [512], "dtype": "float32"}, {"name": "batch_normalization_286/moving_mean", "shape": [512], "dtype": "float32"}, {"name": "batch_normalization_286/moving_variance", "shape": [512], "dtype": "float32"}, {"name": "batch_normalization_289/gamma", "shape": [512], "dtype": "float32"}, {"name": "batch_normalization_289/beta", "shape": [512], "dtype": "float32"}, {"name": "batch_normalization_289/moving_mean", "shape": [512], "dtype": "float32"}, {"name": "batch_normalization_289/moving_variance", "shape": [512], "dtype": "float32"}, {"name": "batch_normalization_293/gamma", "shape": [1024], "dtype": "float32"}, {"name": "batch_normalization_293/beta", "shape": [1024], "dtype": "float32"}, {"name": "batch_normalization_293/moving_mean", "shape": [1024], "dtype": "float32"}, {"name": "batch_normalization_293/moving_variance", "shape": [1024], "dtype": "float32"}, {"name": "batch_normalization_296/gamma", "shape": [1024], "dtype": "float32"}, {"name": "batch_normalization_296/beta", "shape": [1024], "dtype": "float32"}, {"name": "batch_normalization_296/moving_mean", "shape": [1024], "dtype": "float32"}, {"name": "batch_normalization_296/moving_variance", "shape": [1024], "dtype": "float32"}, {"name": "batch_normalization_299/gamma", "shape": [1024], "dtype": "float32"}, {"name": "batch_normalization_299/beta", "shape": [1024], "dtype": "float32"}, {"name": "batch_normalization_299/moving_mean", "shape": [1024], "dtype": "float32"}, {"name": "batch_normalization_299/moving_variance", "shape": [1024], "dtype": "float32"}, {"name": "batch_normalization_302/gamma", "shape": [1024], "dtype": "float32"}, {"name": "batch_normalization_302/beta", "shape": [1024], "dtype": "float32"}, {"name": "batch_normalization_302/moving_mean", "shape": [1024], "dtype": "float32"}, {"name": "batch_normalization_302/moving_variance", "shape": [1024], "dtype": "float32"}, {"name": "batch_normalization_305/gamma", "shape": [1024], "dtype": "float32"}, {"name": "batch_normalization_305/beta", "shape": [1024], "dtype": "float32"}, {"name": "batch_normalization_305/moving_mean", "shape": [1024], "dtype": "float32"}, {"name": "batch_normalization_305/moving_variance", "shape": [1024], "dtype": "float32"}, {"name": "batch_normalization_308/gamma", "shape": [1024], "dtype": "float32"}, {"name": "batch_normalization_308/beta", "shape": [1024], "dtype": "float32"}, {"name": "batch_normalization_308/moving_mean", "shape": [1024], "dtype": "float32"}, {"name": "batch_normalization_308/moving_variance", "shape": [1024], "dtype": "float32"}, {"name": "batch_normalization_312/gamma", "shape": [2048], "dtype": "float32"}, {"name": "batch_normalization_312/beta", "shape": [2048], "dtype": "float32"}, {"name": "batch_normalization_312/moving_mean", "shape": [2048], "dtype": "float32"}, {"name": "batch_normalization_312/moving_variance", "shape": [2048], "dtype": "float32"}, {"name": "batch_normalization_315/gamma", "shape": [2048], "dtype": "float32"}, {"name": "batch_normalization_315/beta", "shape": [2048], "dtype": "float32"}, {"name": "batch_normalization_315/moving_mean", "shape": [2048], "dtype": "float32"}, {"name": "batch_normalization_315/moving_variance", "shape": [2048], "dtype": "float32"}, {"name": "batch_normalization_318/gamma", "shape": [2048], "dtype": "float32"}, {"name": "batch_normalization_318/beta", "shape": [2048], "dtype": "float32"}, {"name": "batch_normalization_318/moving_mean", "shape": [2048], "dtype": "float32"}, {"name": "batch_normalization_318/moving_variance", "shape": [2048], "dtype": "float32"}, {"name": "conv3d_222/kernel", "shape": [5, 1, 1, 8, 16], "dtype": "float32"}, {"name": "conv3d_226/kernel", "shape": [1, 1, 1, 8, 32], "dtype": "float32"}, {"name": "conv3d_229/kernel", "shape": [1, 1, 1, 8, 32], "dtype": "float32"}, {"name": "conv3d_232/kernel", "shape": [1, 1, 1, 8, 32], "dtype": "float32"}, {"name": "conv3d_233/kernel", "shape": [5, 1, 1, 32, 64], "dtype": "float32"}, {"name": "conv3d_237/kernel", "shape": [1, 1, 1, 16, 64], "dtype": "float32"}, {"name": "conv3d_240/kernel", "shape": [1, 1, 1, 16, 64], "dtype": "float32"}, {"name": "conv3d_243/kernel", "shape": [1, 1, 1, 16, 64], "dtype": "float32"}, {"name": "conv3d_246/kernel", "shape": [1, 1, 1, 16, 64], "dtype": "float32"}, {"name": "conv3d_247/kernel", "shape": [5, 1, 1, 64, 128], "dtype": "float32"}, {"name": "conv3d_251/kernel", "shape": [1, 1, 1, 32, 128], "dtype": "float32"}, {"name": "conv3d_254/kernel", "shape": [1, 1, 1, 32, 128], "dtype": "float32"}, {"name": "conv3d_257/kernel", "shape": [1, 1, 1, 32, 128], "dtype": "float32"}, {"name": "conv3d_260/kernel", "shape": [1, 1, 1, 32, 128], "dtype": "float32"}, {"name": "conv3d_263/kernel", "shape": [1, 1, 1, 32, 128], "dtype": "float32"}, {"name": "conv3d_266/kernel", "shape": [1, 1, 1, 32, 128], "dtype": "float32"}, {"name": "conv3d_267/kernel", "shape": [5, 1, 1, 128, 256], "dtype": "float32"}, {"name": "conv3d_271/kernel", "shape": [1, 1, 1, 64, 256], "dtype": "float32"}, {"name": "conv3d_274/kernel", "shape": [1, 1, 1, 64, 256], "dtype": "float32"}, {"name": "conv3d_277/kernel", "shape": [1, 1, 1, 64, 256], "dtype": "float32"}, {"name": "conv3d_282/kernel", "shape": [1, 1, 1, 64, 256], "dtype": "float32"}, {"name": "conv3d_285/kernel", "shape": [1, 1, 1, 64, 256], "dtype": "float32"}, {"name": "conv3d_288/kernel", "shape": [1, 1, 1, 64, 256], "dtype": "float32"}, {"name": "conv3d_292/kernel", "shape": [1, 1, 1, 128, 512], "dtype": "float32"}, {"name": "conv3d_295/kernel", "shape": [1, 1, 1, 128, 512], "dtype": "float32"}, {"name": "conv3d_298/kernel", "shape": [1, 1, 1, 128, 512], "dtype": "float32"}, {"name": "conv3d_301/kernel", "shape": [1, 1, 1, 128, 512], "dtype": "float32"}, {"name": "conv3d_305/kernel", "shape": [1, 1, 1, 256, 1024], "dtype": "float32"}, {"name": "conv3d_308/kernel", "shape": [1, 1, 1, 256, 1024], "dtype": "float32"}, {"name": "conv3d_311/kernel", "shape": [1, 1, 1, 256, 1024], "dtype": "float32"}, {"name": "conv3d_314/kernel", "shape": [1, 1, 1, 256, 1024], "dtype": "float32"}, {"name": "conv3d_317/kernel", "shape": [1, 1, 1, 256, 1024], "dtype": "float32"}, {"name": "conv3d_320/kernel", "shape": [1, 1, 1, 256, 1024], "dtype": "float32"}, {"name": "conv3d_324/kernel", "shape": [1, 1, 1, 512, 2048], "dtype": "float32"}, {"name": "conv3d_327/kernel", "shape": [1, 1, 1, 512, 2048], "dtype": "float32"}, {"name": "conv3d_330/kernel", "shape": [1, 1, 1, 512, 2048], "dtype": "float32"}, {"name": "dense_3/kernel", "shape": [2304, 14], "dtype": "float32"}, {"name": "dense_3/bias", "shape": [14], "dtype": "float32"}, {"name": "conv3d_221/kernel", "shape": [5, 7, 7, 3, 8], "dtype": "float32"}, {"name": "batch_normalization_213/gamma", "shape": [8], "dtype": "float32"}, {"name": "batch_normalization_213/beta", "shape": [8], "dtype": "float32"}, {"name": "batch_normalization_213/moving_mean", "shape": [8], "dtype": "float32"}, {"name": "batch_normalization_213/moving_variance", "shape": [8], "dtype": "float32"}, {"name": "conv3d_223/kernel", "shape": [1, 1, 1, 8, 32], "dtype": "float32"}, {"name": "batch_normalization_214/gamma", "shape": [32], "dtype": "float32"}, {"name": "batch_normalization_214/beta", "shape": [32], "dtype": "float32"}, {"name": "batch_normalization_214/moving_mean", "shape": [32], "dtype": "float32"}, {"name": "batch_normalization_214/moving_variance", "shape": [32], "dtype": "float32"}, {"name": "conv3d_224/kernel", "shape": [3, 1, 1, 8, 8], "dtype": "float32"}, {"name": "batch_normalization_215/gamma", "shape": [8], "dtype": "float32"}, {"name": "batch_normalization_215/beta", "shape": [8], "dtype": "float32"}, {"name": "batch_normalization_215/moving_mean", "shape": [8], "dtype": "float32"}, {"name": "batch_normalization_215/moving_variance", "shape": [8], "dtype": "float32"}, {"name": "conv3d_225/kernel", "shape": [1, 3, 3, 8, 8], "dtype": "float32"}, {"name": "batch_normalization_216/gamma", "shape": [8], "dtype": "float32"}, {"name": "batch_normalization_216/beta", "shape": [8], "dtype": "float32"}, {"name": "batch_normalization_216/moving_mean", "shape": [8], "dtype": "float32"}, {"name": "batch_normalization_216/moving_variance", "shape": [8], "dtype": "float32"}, {"name": "conv3d_227/kernel", "shape": [3, 1, 1, 32, 8], "dtype": "float32"}, {"name": "batch_normalization_218/gamma", "shape": [8], "dtype": "float32"}, {"name": "batch_normalization_218/beta", "shape": [8], "dtype": "float32"}, {"name": "batch_normalization_218/moving_mean", "shape": [8], "dtype": "float32"}, {"name": "batch_normalization_218/moving_variance", "shape": [8], "dtype": "float32"}, {"name": "conv3d_228/kernel", "shape": [1, 3, 3, 8, 8], "dtype": "float32"}, {"name": "batch_normalization_219/gamma", "shape": [8], "dtype": "float32"}, {"name": "batch_normalization_219/beta", "shape": [8], "dtype": "float32"}, {"name": "batch_normalization_219/moving_mean", "shape": [8], "dtype": "float32"}, {"name": "batch_normalization_219/moving_variance", "shape": [8], "dtype": "float32"}, {"name": "conv3d_230/kernel", "shape": [3, 1, 1, 32, 8], "dtype": "float32"}, {"name": "batch_normalization_221/gamma", "shape": [8], "dtype": "float32"}, {"name": "batch_normalization_221/beta", "shape": [8], "dtype": "float32"}, {"name": "batch_normalization_221/moving_mean", "shape": [8], "dtype": "float32"}, {"name": "batch_normalization_221/moving_variance", "shape": [8], "dtype": "float32"}, {"name": "conv3d_231/kernel", "shape": [1, 3, 3, 8, 8], "dtype": "float32"}, {"name": "batch_normalization_222/gamma", "shape": [8], "dtype": "float32"}, {"name": "batch_normalization_222/beta", "shape": [8], "dtype": "float32"}, {"name": "batch_normalization_222/moving_mean", "shape": [8], "dtype": "float32"}, {"name": "batch_normalization_222/moving_variance", "shape": [8], "dtype": "float32"}, {"name": "conv3d_234/kernel", "shape": [1, 1, 1, 32, 64], "dtype": "float32"}, {"name": "batch_normalization_224/gamma", "shape": [64], "dtype": "float32"}, {"name": "batch_normalization_224/beta", "shape": [64], "dtype": "float32"}, {"name": "batch_normalization_224/moving_mean", "shape": [64], "dtype": "float32"}, {"name": "batch_normalization_224/moving_variance", "shape": [64], "dtype": "float32"}, {"name": "conv3d_235/kernel", "shape": [3, 1, 1, 32, 16], "dtype": "float32"}, {"name": "batch_normalization_225/gamma", "shape": [16], "dtype": "float32"}, {"name": "batch_normalization_225/beta", "shape": [16], "dtype": "float32"}, {"name": "batch_normalization_225/moving_mean", "shape": [16], "dtype": "float32"}, {"name": "batch_normalization_225/moving_variance", "shape": [16], "dtype": "float32"}, {"name": "conv3d_236/kernel", "shape": [1, 3, 3, 16, 16], "dtype": "float32"}, {"name": "batch_normalization_226/gamma", "shape": [16], "dtype": "float32"}, {"name": "batch_normalization_226/beta", "shape": [16], "dtype": "float32"}, {"name": "batch_normalization_226/moving_mean", "shape": [16], "dtype": "float32"}, {"name": "batch_normalization_226/moving_variance", "shape": [16], "dtype": "float32"}, {"name": "conv3d_238/kernel", "shape": [3, 1, 1, 64, 16], "dtype": "float32"}, {"name": "batch_normalization_228/gamma", "shape": [16], "dtype": "float32"}, {"name": "batch_normalization_228/beta", "shape": [16], "dtype": "float32"}, {"name": "batch_normalization_228/moving_mean", "shape": [16], "dtype": "float32"}, {"name": "batch_normalization_228/moving_variance", "shape": [16], "dtype": "float32"}, {"name": "conv3d_239/kernel", "shape": [1, 3, 3, 16, 16], "dtype": "float32"}, {"name": "batch_normalization_229/gamma", "shape": [16], "dtype": "float32"}, {"name": "batch_normalization_229/beta", "shape": [16], "dtype": "float32"}, {"name": "batch_normalization_229/moving_mean", "shape": [16], "dtype": "float32"}, {"name": "batch_normalization_229/moving_variance", "shape": [16], "dtype": "float32"}, {"name": "conv3d_241/kernel", "shape": [3, 1, 1, 64, 16], "dtype": "float32"}, {"name": "batch_normalization_231/gamma", "shape": [16], "dtype": "float32"}, {"name": "batch_normalization_231/beta", "shape": [16], "dtype": "float32"}, {"name": "batch_normalization_231/moving_mean", "shape": [16], "dtype": "float32"}, {"name": "batch_normalization_231/moving_variance", "shape": [16], "dtype": "float32"}, {"name": "conv3d_242/kernel", "shape": [1, 3, 3, 16, 16], "dtype": "float32"}, {"name": "batch_normalization_232/gamma", "shape": [16], "dtype": "float32"}, {"name": "batch_normalization_232/beta", "shape": [16], "dtype": "float32"}, {"name": "batch_normalization_232/moving_mean", "shape": [16], "dtype": "float32"}, {"name": "batch_normalization_232/moving_variance", "shape": [16], "dtype": "float32"}, {"name": "conv3d_244/kernel", "shape": [3, 1, 1, 64, 16], "dtype": "float32"}, {"name": "batch_normalization_234/gamma", "shape": [16], "dtype": "float32"}, {"name": "batch_normalization_234/beta", "shape": [16], "dtype": "float32"}, {"name": "batch_normalization_234/moving_mean", "shape": [16], "dtype": "float32"}, {"name": "batch_normalization_234/moving_variance", "shape": [16], "dtype": "float32"}, {"name": "conv3d_245/kernel", "shape": [1, 3, 3, 16, 16], "dtype": "float32"}, {"name": "batch_normalization_235/gamma", "shape": [16], "dtype": "float32"}, {"name": "batch_normalization_235/beta", "shape": [16], "dtype": "float32"}, {"name": "batch_normalization_235/moving_mean", "shape": [16], "dtype": "float32"}, {"name": "batch_normalization_235/moving_variance", "shape": [16], "dtype": "float32"}, {"name": "conv3d_248/kernel", "shape": [1, 1, 1, 64, 128], "dtype": "float32"}, {"name": "batch_normalization_237/gamma", "shape": [128], "dtype": "float32"}, {"name": "batch_normalization_237/beta", "shape": [128], "dtype": "float32"}, {"name": "batch_normalization_237/moving_mean", "shape": [128], "dtype": "float32"}, {"name": "batch_normalization_237/moving_variance", "shape": [128], "dtype": "float32"}, {"name": "conv3d_249/kernel", "shape": [3, 1, 1, 64, 32], "dtype": "float32"}, {"name": "batch_normalization_238/gamma", "shape": [32], "dtype": "float32"}, {"name": "batch_normalization_238/beta", "shape": [32], "dtype": "float32"}, {"name": "batch_normalization_238/moving_mean", "shape": [32], "dtype": "float32"}, {"name": "batch_normalization_238/moving_variance", "shape": [32], "dtype": "float32"}, {"name": "conv3d_250/kernel", "shape": [1, 3, 3, 32, 32], "dtype": "float32"}, {"name": "batch_normalization_239/gamma", "shape": [32], "dtype": "float32"}, {"name": "batch_normalization_239/beta", "shape": [32], "dtype": "float32"}, {"name": "batch_normalization_239/moving_mean", "shape": [32], "dtype": "float32"}, {"name": "batch_normalization_239/moving_variance", "shape": [32], "dtype": "float32"}, {"name": "conv3d_252/kernel", "shape": [3, 1, 1, 128, 32], "dtype": "float32"}, {"name": "batch_normalization_241/gamma", "shape": [32], "dtype": "float32"}, {"name": "batch_normalization_241/beta", "shape": [32], "dtype": "float32"}, {"name": "batch_normalization_241/moving_mean", "shape": [32], "dtype": "float32"}, {"name": "batch_normalization_241/moving_variance", "shape": [32], "dtype": "float32"}, {"name": "conv3d_253/kernel", "shape": [1, 3, 3, 32, 32], "dtype": "float32"}, {"name": "batch_normalization_242/gamma", "shape": [32], "dtype": "float32"}, {"name": "batch_normalization_242/beta", "shape": [32], "dtype": "float32"}, {"name": "batch_normalization_242/moving_mean", "shape": [32], "dtype": "float32"}, {"name": "batch_normalization_242/moving_variance", "shape": [32], "dtype": "float32"}, {"name": "conv3d_255/kernel", "shape": [3, 1, 1, 128, 32], "dtype": "float32"}, {"name": "batch_normalization_244/gamma", "shape": [32], "dtype": "float32"}, {"name": "batch_normalization_244/beta", "shape": [32], "dtype": "float32"}, {"name": "batch_normalization_244/moving_mean", "shape": [32], "dtype": "float32"}, {"name": "batch_normalization_244/moving_variance", "shape": [32], "dtype": "float32"}, {"name": "conv3d_256/kernel", "shape": [1, 3, 3, 32, 32], "dtype": "float32"}, {"name": "batch_normalization_245/gamma", "shape": [32], "dtype": "float32"}, {"name": "batch_normalization_245/beta", "shape": [32], "dtype": "float32"}, {"name": "batch_normalization_245/moving_mean", "shape": [32], "dtype": "float32"}, {"name": "batch_normalization_245/moving_variance", "shape": [32], "dtype": "float32"}, {"name": "conv3d_258/kernel", "shape": [3, 1, 1, 128, 32], "dtype": "float32"}, {"name": "batch_normalization_247/gamma", "shape": [32], "dtype": "float32"}, {"name": "batch_normalization_247/beta", "shape": [32], "dtype": "float32"}, {"name": "batch_normalization_247/moving_mean", "shape": [32], "dtype": "float32"}, {"name": "batch_normalization_247/moving_variance", "shape": [32], "dtype": "float32"}, {"name": "conv3d_259/kernel", "shape": [1, 3, 3, 32, 32], "dtype": "float32"}, {"name": "batch_normalization_248/gamma", "shape": [32], "dtype": "float32"}, {"name": "batch_normalization_248/beta", "shape": [32], "dtype": "float32"}, {"name": "batch_normalization_248/moving_mean", "shape": [32], "dtype": "float32"}, {"name": "batch_normalization_248/moving_variance", "shape": [32], "dtype": "float32"}, {"name": "conv3d_261/kernel", "shape": [3, 1, 1, 128, 32], "dtype": "float32"}, {"name": "batch_normalization_250/gamma", "shape": [32], "dtype": "float32"}, {"name": "batch_normalization_250/beta", "shape": [32], "dtype": "float32"}, {"name": "batch_normalization_250/moving_mean", "shape": [32], "dtype": "float32"}, {"name": "batch_normalization_250/moving_variance", "shape": [32], "dtype": "float32"}, {"name": "conv3d_262/kernel", "shape": [1, 3, 3, 32, 32], "dtype": "float32"}, {"name": "batch_normalization_251/gamma", "shape": [32], "dtype": "float32"}, {"name": "batch_normalization_251/beta", "shape": [32], "dtype": "float32"}, {"name": "batch_normalization_251/moving_mean", "shape": [32], "dtype": "float32"}, {"name": "batch_normalization_251/moving_variance", "shape": [32], "dtype": "float32"}, {"name": "conv3d_264/kernel", "shape": [3, 1, 1, 128, 32], "dtype": "float32"}, {"name": "batch_normalization_253/gamma", "shape": [32], "dtype": "float32"}, {"name": "batch_normalization_253/beta", "shape": [32], "dtype": "float32"}, {"name": "batch_normalization_253/moving_mean", "shape": [32], "dtype": "float32"}, {"name": "batch_normalization_253/moving_variance", "shape": [32], "dtype": "float32"}, {"name": "conv3d_265/kernel", "shape": [1, 3, 3, 32, 32], "dtype": "float32"}, {"name": "batch_normalization_254/gamma", "shape": [32], "dtype": "float32"}, {"name": "batch_normalization_254/beta", "shape": [32], "dtype": "float32"}, {"name": "batch_normalization_254/moving_mean", "shape": [32], "dtype": "float32"}, {"name": "batch_normalization_254/moving_variance", "shape": [32], "dtype": "float32"}, {"name": "conv3d_268/kernel", "shape": [1, 1, 1, 128, 256], "dtype": "float32"}, {"name": "batch_normalization_256/gamma", "shape": [256], "dtype": "float32"}, {"name": "batch_normalization_256/beta", "shape": [256], "dtype": "float32"}, {"name": "batch_normalization_256/moving_mean", "shape": [256], "dtype": "float32"}, {"name": "batch_normalization_256/moving_variance", "shape": [256], "dtype": "float32"}, {"name": "conv3d_269/kernel", "shape": [3, 1, 1, 128, 64], "dtype": "float32"}, {"name": "batch_normalization_257/gamma", "shape": [64], "dtype": "float32"}, {"name": "batch_normalization_257/beta", "shape": [64], "dtype": "float32"}, {"name": "batch_normalization_257/moving_mean", "shape": [64], "dtype": "float32"}, {"name": "batch_normalization_257/moving_variance", "shape": [64], "dtype": "float32"}, {"name": "conv3d_270/kernel", "shape": [1, 3, 3, 64, 64], "dtype": "float32"}, {"name": "batch_normalization_258/gamma", "shape": [64], "dtype": "float32"}, {"name": "batch_normalization_258/beta", "shape": [64], "dtype": "float32"}, {"name": "batch_normalization_258/moving_mean", "shape": [64], "dtype": "float32"}, {"name": "batch_normalization_258/moving_variance", "shape": [64], "dtype": "float32"}, {"name": "conv3d_272/kernel", "shape": [3, 1, 1, 256, 64], "dtype": "float32"}, {"name": "batch_normalization_260/gamma", "shape": [64], "dtype": "float32"}, {"name": "batch_normalization_260/beta", "shape": [64], "dtype": "float32"}, {"name": "batch_normalization_260/moving_mean", "shape": [64], "dtype": "float32"}, {"name": "batch_normalization_260/moving_variance", "shape": [64], "dtype": "float32"}, {"name": "conv3d_273/kernel", "shape": [1, 3, 3, 64, 64], "dtype": "float32"}, {"name": "batch_normalization_261/gamma", "shape": [64], "dtype": "float32"}, {"name": "batch_normalization_261/beta", "shape": [64], "dtype": "float32"}, {"name": "batch_normalization_261/moving_mean", "shape": [64], "dtype": "float32"}, {"name": "batch_normalization_261/moving_variance", "shape": [64], "dtype": "float32"}, {"name": "conv3d_275/kernel", "shape": [3, 1, 1, 256, 64], "dtype": "float32"}, {"name": "batch_normalization_263/gamma", "shape": [64], "dtype": "float32"}, {"name": "batch_normalization_263/beta", "shape": [64], "dtype": "float32"}, {"name": "batch_normalization_263/moving_mean", "shape": [64], "dtype": "float32"}, {"name": "batch_normalization_263/moving_variance", "shape": [64], "dtype": "float32"}, {"name": "conv3d_276/kernel", "shape": [1, 3, 3, 64, 64], "dtype": "float32"}, {"name": "batch_normalization_264/gamma", "shape": [64], "dtype": "float32"}, {"name": "batch_normalization_264/beta", "shape": [64], "dtype": "float32"}, {"name": "batch_normalization_264/moving_mean", "shape": [64], "dtype": "float32"}, {"name": "batch_normalization_264/moving_variance", "shape": [64], "dtype": "float32"}, {"name": "conv3d_278/kernel", "shape": [1, 7, 7, 3, 64], "dtype": "float32"}, {"name": "batch_normalization_266/gamma", "shape": [64], "dtype": "float32"}, {"name": "batch_normalization_266/beta", "shape": [64], "dtype": "float32"}, {"name": "batch_normalization_266/moving_mean", "shape": [64], "dtype": "float32"}, {"name": "batch_normalization_266/moving_variance", "shape": [64], "dtype": "float32"}, {"name": "conv3d_279/kernel", "shape": [1, 1, 1, 80, 256], "dtype": "float32"}, {"name": "batch_normalization_267/gamma", "shape": [256], "dtype": "float32"}, {"name": "batch_normalization_267/beta", "shape": [256], "dtype": "float32"}, {"name": "batch_normalization_267/moving_mean", "shape": [256], "dtype": "float32"}, {"name": "batch_normalization_267/moving_variance", "shape": [256], "dtype": "float32"}, {"name": "conv3d_280/kernel", "shape": [1, 1, 1, 80, 64], "dtype": "float32"}, {"name": "batch_normalization_268/gamma", "shape": [64], "dtype": "float32"}, {"name": "batch_normalization_268/beta", "shape": [64], "dtype": "float32"}, {"name": "batch_normalization_268/moving_mean", "shape": [64], "dtype": "float32"}, {"name": "batch_normalization_268/moving_variance", "shape": [64], "dtype": "float32"}, {"name": "conv3d_281/kernel", "shape": [1, 3, 3, 64, 64], "dtype": "float32"}, {"name": "batch_normalization_269/gamma", "shape": [64], "dtype": "float32"}, {"name": "batch_normalization_269/beta", "shape": [64], "dtype": "float32"}, {"name": "batch_normalization_269/moving_mean", "shape": [64], "dtype": "float32"}, {"name": "batch_normalization_269/moving_variance", "shape": [64], "dtype": "float32"}, {"name": "conv3d_283/kernel", "shape": [1, 1, 1, 256, 64], "dtype": "float32"}, {"name": "batch_normalization_271/gamma", "shape": [64], "dtype": "float32"}, {"name": "batch_normalization_271/beta", "shape": [64], "dtype": "float32"}, {"name": "batch_normalization_271/moving_mean", "shape": [64], "dtype": "float32"}, {"name": "batch_normalization_271/moving_variance", "shape": [64], "dtype": "float32"}, {"name": "conv3d_284/kernel", "shape": [1, 3, 3, 64, 64], "dtype": "float32"}, {"name": "batch_normalization_272/gamma", "shape": [64], "dtype": "float32"}, {"name": "batch_normalization_272/beta", "shape": [64], "dtype": "float32"}, {"name": "batch_normalization_272/moving_mean", "shape": [64], "dtype": "float32"}, {"name": "batch_normalization_272/moving_variance", "shape": [64], "dtype": "float32"}, {"name": "conv3d_286/kernel", "shape": [1, 1, 1, 256, 64], "dtype": "float32"}, {"name": "batch_normalization_274/gamma", "shape": [64], "dtype": "float32"}, {"name": "batch_normalization_274/beta", "shape": [64], "dtype": "float32"}, {"name": "batch_normalization_274/moving_mean", "shape": [64], "dtype": "float32"}, {"name": "batch_normalization_274/moving_variance", "shape": [64], "dtype": "float32"}, {"name": "conv3d_287/kernel", "shape": [1, 3, 3, 64, 64], "dtype": "float32"}, {"name": "batch_normalization_275/gamma", "shape": [64], "dtype": "float32"}, {"name": "batch_normalization_275/beta", "shape": [64], "dtype": "float32"}, {"name": "batch_normalization_275/moving_mean", "shape": [64], "dtype": "float32"}, {"name": "batch_normalization_275/moving_variance", "shape": [64], "dtype": "float32"}, {"name": "conv3d_289/kernel", "shape": [1, 1, 1, 320, 512], "dtype": "float32"}, {"name": "batch_normalization_277/gamma", "shape": [512], "dtype": "float32"}, {"name": "batch_normalization_277/beta", "shape": [512], "dtype": "float32"}, {"name": "batch_normalization_277/moving_mean", "shape": [512], "dtype": "float32"}, {"name": "batch_normalization_277/moving_variance", "shape": [512], "dtype": "float32"}, {"name": "conv3d_290/kernel", "shape": [1, 1, 1, 320, 128], "dtype": "float32"}, {"name": "batch_normalization_278/gamma", "shape": [128], "dtype": "float32"}, {"name": "batch_normalization_278/beta", "shape": [128], "dtype": "float32"}, {"name": "batch_normalization_278/moving_mean", "shape": [128], "dtype": "float32"}, {"name": "batch_normalization_278/moving_variance", "shape": [128], "dtype": "float32"}, {"name": "conv3d_291/kernel", "shape": [1, 3, 3, 128, 128], "dtype": "float32"}, {"name": "batch_normalization_279/gamma", "shape": [128], "dtype": "float32"}, {"name": "batch_normalization_279/beta", "shape": [128], "dtype": "float32"}, {"name": "batch_normalization_279/moving_mean", "shape": [128], "dtype": "float32"}, {"name": "batch_normalization_279/moving_variance", "shape": [128], "dtype": "float32"}, {"name": "conv3d_293/kernel", "shape": [1, 1, 1, 512, 128], "dtype": "float32"}, {"name": "batch_normalization_281/gamma", "shape": [128], "dtype": "float32"}, {"name": "batch_normalization_281/beta", "shape": [128], "dtype": "float32"}, {"name": "batch_normalization_281/moving_mean", "shape": [128], "dtype": "float32"}, {"name": "batch_normalization_281/moving_variance", "shape": [128], "dtype": "float32"}, {"name": "conv3d_294/kernel", "shape": [1, 3, 3, 128, 128], "dtype": "float32"}, {"name": "batch_normalization_282/gamma", "shape": [128], "dtype": "float32"}, {"name": "batch_normalization_282/beta", "shape": [128], "dtype": "float32"}, {"name": "batch_normalization_282/moving_mean", "shape": [128], "dtype": "float32"}, {"name": "batch_normalization_282/moving_variance", "shape": [128], "dtype": "float32"}, {"name": "conv3d_296/kernel", "shape": [1, 1, 1, 512, 128], "dtype": "float32"}, {"name": "batch_normalization_284/gamma", "shape": [128], "dtype": "float32"}, {"name": "batch_normalization_284/beta", "shape": [128], "dtype": "float32"}, {"name": "batch_normalization_284/moving_mean", "shape": [128], "dtype": "float32"}, {"name": "batch_normalization_284/moving_variance", "shape": [128], "dtype": "float32"}, {"name": "conv3d_297/kernel", "shape": [1, 3, 3, 128, 128], "dtype": "float32"}, {"name": "batch_normalization_285/gamma", "shape": [128], "dtype": "float32"}, {"name": "batch_normalization_285/beta", "shape": [128], "dtype": "float32"}, {"name": "batch_normalization_285/moving_mean", "shape": [128], "dtype": "float32"}, {"name": "batch_normalization_285/moving_variance", "shape": [128], "dtype": "float32"}, {"name": "conv3d_299/kernel", "shape": [1, 1, 1, 512, 128], "dtype": "float32"}, {"name": "batch_normalization_287/gamma", "shape": [128], "dtype": "float32"}, {"name": "batch_normalization_287/beta", "shape": [128], "dtype": "float32"}, {"name": "batch_normalization_287/moving_mean", "shape": [128], "dtype": "float32"}, {"name": "batch_normalization_287/moving_variance", "shape": [128], "dtype": "float32"}, {"name": "conv3d_300/kernel", "shape": [1, 3, 3, 128, 128], "dtype": "float32"}, {"name": "batch_normalization_288/gamma", "shape": [128], "dtype": "float32"}, {"name": "batch_normalization_288/beta", "shape": [128], "dtype": "float32"}, {"name": "batch_normalization_288/moving_mean", "shape": [128], "dtype": "float32"}, {"name": "batch_normalization_288/moving_variance", "shape": [128], "dtype": "float32"}, {"name": "conv3d_302/kernel", "shape": [1, 1, 1, 640, 1024], "dtype": "float32"}, {"name": "batch_normalization_290/gamma", "shape": [1024], "dtype": "float32"}, {"name": "batch_normalization_290/beta", "shape": [1024], "dtype": "float32"}, {"name": "batch_normalization_290/moving_mean", "shape": [1024], "dtype": "float32"}, {"name": "batch_normalization_290/moving_variance", "shape": [1024], "dtype": "float32"}, {"name": "conv3d_303/kernel", "shape": [1, 1, 1, 640, 256], "dtype": "float32"}, {"name": "batch_normalization_291/gamma", "shape": [256], "dtype": "float32"}, {"name": "batch_normalization_291/beta", "shape": [256], "dtype": "float32"}, {"name": "batch_normalization_291/moving_mean", "shape": [256], "dtype": "float32"}, {"name": "batch_normalization_291/moving_variance", "shape": [256], "dtype": "float32"}, {"name": "conv3d_304/kernel", "shape": [1, 3, 3, 256, 256], "dtype": "float32"}, {"name": "batch_normalization_292/gamma", "shape": [256], "dtype": "float32"}, {"name": "batch_normalization_292/beta", "shape": [256], "dtype": "float32"}, {"name": "batch_normalization_292/moving_mean", "shape": [256], "dtype": "float32"}, {"name": "batch_normalization_292/moving_variance", "shape": [256], "dtype": "float32"}, {"name": "conv3d_306/kernel", "shape": [1, 1, 1, 1024, 256], "dtype": "float32"}, {"name": "batch_normalization_294/gamma", "shape": [256], "dtype": "float32"}, {"name": "batch_normalization_294/beta", "shape": [256], "dtype": "float32"}, {"name": "batch_normalization_294/moving_mean", "shape": [256], "dtype": "float32"}, {"name": "batch_normalization_294/moving_variance", "shape": [256], "dtype": "float32"}, {"name": "conv3d_307/kernel", "shape": [1, 3, 3, 256, 256], "dtype": "float32"}, {"name": "batch_normalization_295/gamma", "shape": [256], "dtype": "float32"}, {"name": "batch_normalization_295/beta", "shape": [256], "dtype": "float32"}, {"name": "batch_normalization_295/moving_mean", "shape": [256], "dtype": "float32"}, {"name": "batch_normalization_295/moving_variance", "shape": [256], "dtype": "float32"}, {"name": "conv3d_309/kernel", "shape": [1, 1, 1, 1024, 256], "dtype": "float32"}, {"name": "batch_normalization_297/gamma", "shape": [256], "dtype": "float32"}, {"name": "batch_normalization_297/beta", "shape": [256], "dtype": "float32"}, {"name": "batch_normalization_297/moving_mean", "shape": [256], "dtype": "float32"}, {"name": "batch_normalization_297/moving_variance", "shape": [256], "dtype": "float32"}, {"name": "conv3d_310/kernel", "shape": [1, 3, 3, 256, 256], "dtype": "float32"}, {"name": "batch_normalization_298/gamma", "shape": [256], "dtype": "float32"}, {"name": "batch_normalization_298/beta", "shape": [256], "dtype": "float32"}, {"name": "batch_normalization_298/moving_mean", "shape": [256], "dtype": "float32"}, {"name": "batch_normalization_298/moving_variance", "shape": [256], "dtype": "float32"}, {"name": "conv3d_312/kernel", "shape": [1, 1, 1, 1024, 256], "dtype": "float32"}, {"name": "batch_normalization_300/gamma", "shape": [256], "dtype": "float32"}, {"name": "batch_normalization_300/beta", "shape": [256], "dtype": "float32"}, {"name": "batch_normalization_300/moving_mean", "shape": [256], "dtype": "float32"}, {"name": "batch_normalization_300/moving_variance", "shape": [256], "dtype": "float32"}, {"name": "conv3d_313/kernel", "shape": [1, 3, 3, 256, 256], "dtype": "float32"}, {"name": "batch_normalization_301/gamma", "shape": [256], "dtype": "float32"}, {"name": "batch_normalization_301/beta", "shape": [256], "dtype": "float32"}, {"name": "batch_normalization_301/moving_mean", "shape": [256], "dtype": "float32"}, {"name": "batch_normalization_301/moving_variance", "shape": [256], "dtype": "float32"}, {"name": "conv3d_315/kernel", "shape": [1, 1, 1, 1024, 256], "dtype": "float32"}, {"name": "batch_normalization_303/gamma", "shape": [256], "dtype": "float32"}, {"name": "batch_normalization_303/beta", "shape": [256], "dtype": "float32"}, {"name": "batch_normalization_303/moving_mean", "shape": [256], "dtype": "float32"}, {"name": "batch_normalization_303/moving_variance", "shape": [256], "dtype": "float32"}, {"name": "conv3d_316/kernel", "shape": [1, 3, 3, 256, 256], "dtype": "float32"}, {"name": "batch_normalization_304/gamma", "shape": [256], "dtype": "float32"}, {"name": "batch_normalization_304/beta", "shape": [256], "dtype": "float32"}, {"name": "batch_normalization_304/moving_mean", "shape": [256], "dtype": "float32"}, {"name": "batch_normalization_304/moving_variance", "shape": [256], "dtype": "float32"}, {"name": "conv3d_318/kernel", "shape": [1, 1, 1, 1024, 256], "dtype": "float32"}, {"name": "batch_normalization_306/gamma", "shape": [256], "dtype": "float32"}, {"name": "batch_normalization_306/beta", "shape": [256], "dtype": "float32"}, {"name": "batch_normalization_306/moving_mean", "shape": [256], "dtype": "float32"}, {"name": "batch_normalization_306/moving_variance", "shape": [256], "dtype": "float32"}, {"name": "conv3d_319/kernel", "shape": [1, 3, 3, 256, 256], "dtype": "float32"}, {"name": "batch_normalization_307/gamma", "shape": [256], "dtype": "float32"}, {"name": "batch_normalization_307/beta", "shape": [256], "dtype": "float32"}, {"name": "batch_normalization_307/moving_mean", "shape": [256], "dtype": "float32"}, {"name": "batch_normalization_307/moving_variance", "shape": [256], "dtype": "float32"}, {"name": "conv3d_321/kernel", "shape": [1, 1, 1, 1280, 2048], "dtype": "float32"}, {"name": "batch_normalization_309/gamma", "shape": [2048], "dtype": "float32"}, {"name": "batch_normalization_309/beta", "shape": [2048], "dtype": "float32"}, {"name": "batch_normalization_309/moving_mean", "shape": [2048], "dtype": "float32"}, {"name": "batch_normalization_309/moving_variance", "shape": [2048], "dtype": "float32"}, {"name": "conv3d_322/kernel", "shape": [1, 1, 1, 1280, 512], "dtype": "float32"}, {"name": "batch_normalization_310/gamma", "shape": [512], "dtype": "float32"}, {"name": "batch_normalization_310/beta", "shape": [512], "dtype": "float32"}, {"name": "batch_normalization_310/moving_mean", "shape": [512], "dtype": "float32"}, {"name": "batch_normalization_310/moving_variance", "shape": [512], "dtype": "float32"}, {"name": "conv3d_323/kernel", "shape": [1, 3, 3, 512, 512], "dtype": "float32"}, {"name": "batch_normalization_311/gamma", "shape": [512], "dtype": "float32"}, {"name": "batch_normalization_311/beta", "shape": [512], "dtype": "float32"}, {"name": "batch_normalization_311/moving_mean", "shape": [512], "dtype": "float32"}, {"name": "batch_normalization_311/moving_variance", "shape": [512], "dtype": "float32"}, {"name": "conv3d_325/kernel", "shape": [1, 1, 1, 2048, 512], "dtype": "float32"}, {"name": "batch_normalization_313/gamma", "shape": [512], "dtype": "float32"}, {"name": "batch_normalization_313/beta", "shape": [512], "dtype": "float32"}, {"name": "batch_normalization_313/moving_mean", "shape": [512], "dtype": "float32"}, {"name": "batch_normalization_313/moving_variance", "shape": [512], "dtype": "float32"}, {"name": "conv3d_326/kernel", "shape": [1, 3, 3, 512, 512], "dtype": "float32"}, {"name": "batch_normalization_314/gamma", "shape": [512], "dtype": "float32"}, {"name": "batch_normalization_314/beta", "shape": [512], "dtype": "float32"}, {"name": "batch_normalization_314/moving_mean", "shape": [512], "dtype": "float32"}, {"name": "batch_normalization_314/moving_variance", "shape": [512], "dtype": "float32"}, {"name": "conv3d_328/kernel", "shape": [1, 1, 1, 2048, 512], "dtype": "float32"}, {"name": "batch_normalization_316/gamma", "shape": [512], "dtype": "float32"}, {"name": "batch_normalization_316/beta", "shape": [512], "dtype": "float32"}, {"name": "batch_normalization_316/moving_mean", "shape": [512], "dtype": "float32"}, {"name": "batch_normalization_316/moving_variance", "shape": [512], "dtype": "float32"}, {"name": "conv3d_329/kernel", "shape": [1, 3, 3, 512, 512], "dtype": "float32"}, {"name": "batch_normalization_317/gamma", "shape": [512], "dtype": "float32"}, {"name": "batch_normalization_317/beta", "shape": [512], "dtype": "float32"}, {"name": "batch_normalization_317/moving_mean", "shape": [512], "dtype": "float32"}, {"name": "batch_normalization_317/moving_variance", "shape": [512], "dtype": "float32"}]}]}